Model: "model_2"
__________________________________________________________________________________________________
 Layer (type)                Output Shape                 Param #   Connected to                  
==================================================================================================
 input_3 (InputLayer)        [(None, 224, 224, 3)]        0         []                            
                                                                                                  
 conv2d_406 (Conv2D)         (None, 111, 111, 32)         864       ['input_3[0][0]']             
                                                                                                  
 batch_normalization_406 (B  (None, 111, 111, 32)         96        ['conv2d_406[0][0]']          
 atchNormalization)                                                                               
                                                                                                  
 activation_406 (Activation  (None, 111, 111, 32)         0         ['batch_normalization_406[0][0
 )                                                                  ]']                           
                                                                                                  
 conv2d_407 (Conv2D)         (None, 109, 109, 32)         9216      ['activation_406[0][0]']      
                                                                                                  
 batch_normalization_407 (B  (None, 109, 109, 32)         96        ['conv2d_407[0][0]']          
 atchNormalization)                                                                               
                                                                                                  
 activation_407 (Activation  (None, 109, 109, 32)         0         ['batch_normalization_407[0][0
 )                                                                  ]']                           
                                                                                                  
 conv2d_408 (Conv2D)         (None, 109, 109, 64)         18432     ['activation_407[0][0]']      
                                                                                                  
 batch_normalization_408 (B  (None, 109, 109, 64)         192       ['conv2d_408[0][0]']          
 atchNormalization)                                                                               
                                                                                                  
 activation_408 (Activation  (None, 109, 109, 64)         0         ['batch_normalization_408[0][0
 )                                                                  ]']                           
                                                                                                  
 max_pooling2d_8 (MaxPoolin  (None, 54, 54, 64)           0         ['activation_408[0][0]']      
 g2D)                                                                                             
                                                                                                  
 conv2d_409 (Conv2D)         (None, 54, 54, 80)           5120      ['max_pooling2d_8[0][0]']     
                                                                                                  
 batch_normalization_409 (B  (None, 54, 54, 80)           240       ['conv2d_409[0][0]']          
 atchNormalization)                                                                               
                                                                                                  
 activation_409 (Activation  (None, 54, 54, 80)           0         ['batch_normalization_409[0][0
 )                                                                  ]']                           
                                                                                                  
 conv2d_410 (Conv2D)         (None, 52, 52, 192)          138240    ['activation_409[0][0]']      
                                                                                                  
 batch_normalization_410 (B  (None, 52, 52, 192)          576       ['conv2d_410[0][0]']          
 atchNormalization)                                                                               
                                                                                                  
 activation_410 (Activation  (None, 52, 52, 192)          0         ['batch_normalization_410[0][0
 )                                                                  ]']                           
                                                                                                  
 max_pooling2d_9 (MaxPoolin  (None, 25, 25, 192)          0         ['activation_410[0][0]']      
 g2D)                                                                                             
                                                                                                  
 conv2d_414 (Conv2D)         (None, 25, 25, 64)           12288     ['max_pooling2d_9[0][0]']     
                                                                                                  
 batch_normalization_414 (B  (None, 25, 25, 64)           192       ['conv2d_414[0][0]']          
 atchNormalization)                                                                               
                                                                                                  
 activation_414 (Activation  (None, 25, 25, 64)           0         ['batch_normalization_414[0][0
 )                                                                  ]']                           
                                                                                                  
 conv2d_412 (Conv2D)         (None, 25, 25, 48)           9216      ['max_pooling2d_9[0][0]']     
                                                                                                  
 conv2d_415 (Conv2D)         (None, 25, 25, 96)           55296     ['activation_414[0][0]']      
                                                                                                  
 batch_normalization_412 (B  (None, 25, 25, 48)           144       ['conv2d_412[0][0]']          
 atchNormalization)                                                                               
                                                                                                  
 batch_normalization_415 (B  (None, 25, 25, 96)           288       ['conv2d_415[0][0]']          
 atchNormalization)                                                                               
                                                                                                  
 activation_412 (Activation  (None, 25, 25, 48)           0         ['batch_normalization_412[0][0
 )                                                                  ]']                           
                                                                                                  
 activation_415 (Activation  (None, 25, 25, 96)           0         ['batch_normalization_415[0][0
 )                                                                  ]']                           
                                                                                                  
 average_pooling2d_2 (Avera  (None, 25, 25, 192)          0         ['max_pooling2d_9[0][0]']     
 gePooling2D)                                                                                     
                                                                                                  
 conv2d_411 (Conv2D)         (None, 25, 25, 96)           18432     ['max_pooling2d_9[0][0]']     
                                                                                                  
 conv2d_413 (Conv2D)         (None, 25, 25, 64)           76800     ['activation_412[0][0]']      
                                                                                                  
 conv2d_416 (Conv2D)         (None, 25, 25, 96)           82944     ['activation_415[0][0]']      
                                                                                                  
 conv2d_417 (Conv2D)         (None, 25, 25, 64)           12288     ['average_pooling2d_2[0][0]'] 
                                                                                                  
 batch_normalization_411 (B  (None, 25, 25, 96)           288       ['conv2d_411[0][0]']          
 atchNormalization)                                                                               
                                                                                                  
 batch_normalization_413 (B  (None, 25, 25, 64)           192       ['conv2d_413[0][0]']          
 atchNormalization)                                                                               
                                                                                                  
 batch_normalization_416 (B  (None, 25, 25, 96)           288       ['conv2d_416[0][0]']          
 atchNormalization)                                                                               
                                                                                                  
 batch_normalization_417 (B  (None, 25, 25, 64)           192       ['conv2d_417[0][0]']          
 atchNormalization)                                                                               
                                                                                                  
 activation_411 (Activation  (None, 25, 25, 96)           0         ['batch_normalization_411[0][0
 )                                                                  ]']                           
                                                                                                  
 activation_413 (Activation  (None, 25, 25, 64)           0         ['batch_normalization_413[0][0
 )                                                                  ]']                           
                                                                                                  
 activation_416 (Activation  (None, 25, 25, 96)           0         ['batch_normalization_416[0][0
 )                                                                  ]']                           
                                                                                                  
 activation_417 (Activation  (None, 25, 25, 64)           0         ['batch_normalization_417[0][0
 )                                                                  ]']                           
                                                                                                  
 mixed_5b (Concatenate)      (None, 25, 25, 320)          0         ['activation_411[0][0]',      
                                                                     'activation_413[0][0]',      
                                                                     'activation_416[0][0]',      
                                                                     'activation_417[0][0]']      
                                                                                                  
 conv2d_421 (Conv2D)         (None, 25, 25, 32)           10240     ['mixed_5b[0][0]']            
                                                                                                  
 batch_normalization_421 (B  (None, 25, 25, 32)           96        ['conv2d_421[0][0]']          
 atchNormalization)                                                                               
                                                                                                  
 activation_421 (Activation  (None, 25, 25, 32)           0         ['batch_normalization_421[0][0
 )                                                                  ]']                           
                                                                                                  
 conv2d_419 (Conv2D)         (None, 25, 25, 32)           10240     ['mixed_5b[0][0]']            
                                                                                                  
 conv2d_422 (Conv2D)         (None, 25, 25, 48)           13824     ['activation_421[0][0]']      
                                                                                                  
 batch_normalization_419 (B  (None, 25, 25, 32)           96        ['conv2d_419[0][0]']          
 atchNormalization)                                                                               
                                                                                                  
 batch_normalization_422 (B  (None, 25, 25, 48)           144       ['conv2d_422[0][0]']          
 atchNormalization)                                                                               
                                                                                                  
 activation_419 (Activation  (None, 25, 25, 32)           0         ['batch_normalization_419[0][0
 )                                                                  ]']                           
                                                                                                  
 activation_422 (Activation  (None, 25, 25, 48)           0         ['batch_normalization_422[0][0
 )                                                                  ]']                           
                                                                                                  
 conv2d_418 (Conv2D)         (None, 25, 25, 32)           10240     ['mixed_5b[0][0]']            
                                                                                                  
 conv2d_420 (Conv2D)         (None, 25, 25, 32)           9216      ['activation_419[0][0]']      
                                                                                                  
 conv2d_423 (Conv2D)         (None, 25, 25, 64)           27648     ['activation_422[0][0]']      
                                                                                                  
 batch_normalization_418 (B  (None, 25, 25, 32)           96        ['conv2d_418[0][0]']          
 atchNormalization)                                                                               
                                                                                                  
 batch_normalization_420 (B  (None, 25, 25, 32)           96        ['conv2d_420[0][0]']          
 atchNormalization)                                                                               
                                                                                                  
 batch_normalization_423 (B  (None, 25, 25, 64)           192       ['conv2d_423[0][0]']          
 atchNormalization)                                                                               
                                                                                                  
 activation_418 (Activation  (None, 25, 25, 32)           0         ['batch_normalization_418[0][0
 )                                                                  ]']                           
                                                                                                  
 activation_420 (Activation  (None, 25, 25, 32)           0         ['batch_normalization_420[0][0
 )                                                                  ]']                           
                                                                                                  
 activation_423 (Activation  (None, 25, 25, 64)           0         ['batch_normalization_423[0][0
 )                                                                  ]']                           
                                                                                                  
 block35_1_mixed (Concatena  (None, 25, 25, 128)          0         ['activation_418[0][0]',      
 te)                                                                 'activation_420[0][0]',      
                                                                     'activation_423[0][0]']      
                                                                                                  
 block35_1_conv (Conv2D)     (None, 25, 25, 320)          41280     ['block35_1_mixed[0][0]']     
                                                                                                  
 custom_scale_layer_80 (Cus  (None, 25, 25, 320)          0         ['mixed_5b[0][0]',            
 tomScaleLayer)                                                      'block35_1_conv[0][0]']      
                                                                                                  
 block35_1_ac (Activation)   (None, 25, 25, 320)          0         ['custom_scale_layer_80[0][0]'
                                                                    ]                             
                                                                                                  
 conv2d_427 (Conv2D)         (None, 25, 25, 32)           10240     ['block35_1_ac[0][0]']        
                                                                                                  
 batch_normalization_427 (B  (None, 25, 25, 32)           96        ['conv2d_427[0][0]']          
 atchNormalization)                                                                               
                                                                                                  
 activation_427 (Activation  (None, 25, 25, 32)           0         ['batch_normalization_427[0][0
 )                                                                  ]']                           
                                                                                                  
 conv2d_425 (Conv2D)         (None, 25, 25, 32)           10240     ['block35_1_ac[0][0]']        
                                                                                                  
 conv2d_428 (Conv2D)         (None, 25, 25, 48)           13824     ['activation_427[0][0]']      
                                                                                                  
 batch_normalization_425 (B  (None, 25, 25, 32)           96        ['conv2d_425[0][0]']          
 atchNormalization)                                                                               
                                                                                                  
 batch_normalization_428 (B  (None, 25, 25, 48)           144       ['conv2d_428[0][0]']          
 atchNormalization)                                                                               
                                                                                                  
 activation_425 (Activation  (None, 25, 25, 32)           0         ['batch_normalization_425[0][0
 )                                                                  ]']                           
                                                                                                  
 activation_428 (Activation  (None, 25, 25, 48)           0         ['batch_normalization_428[0][0
 )                                                                  ]']                           
                                                                                                  
 conv2d_424 (Conv2D)         (None, 25, 25, 32)           10240     ['block35_1_ac[0][0]']        
                                                                                                  
 conv2d_426 (Conv2D)         (None, 25, 25, 32)           9216      ['activation_425[0][0]']      
                                                                                                  
 conv2d_429 (Conv2D)         (None, 25, 25, 64)           27648     ['activation_428[0][0]']      
                                                                                                  
 batch_normalization_424 (B  (None, 25, 25, 32)           96        ['conv2d_424[0][0]']          
 atchNormalization)                                                                               
                                                                                                  
 batch_normalization_426 (B  (None, 25, 25, 32)           96        ['conv2d_426[0][0]']          
 atchNormalization)                                                                               
                                                                                                  
 batch_normalization_429 (B  (None, 25, 25, 64)           192       ['conv2d_429[0][0]']          
 atchNormalization)                                                                               
                                                                                                  
 activation_424 (Activation  (None, 25, 25, 32)           0         ['batch_normalization_424[0][0
 )                                                                  ]']                           
                                                                                                  
 activation_426 (Activation  (None, 25, 25, 32)           0         ['batch_normalization_426[0][0
 )                                                                  ]']                           
                                                                                                  
 activation_429 (Activation  (None, 25, 25, 64)           0         ['batch_normalization_429[0][0
 )                                                                  ]']                           
                                                                                                  
 block35_2_mixed (Concatena  (None, 25, 25, 128)          0         ['activation_424[0][0]',      
 te)                                                                 'activation_426[0][0]',      
                                                                     'activation_429[0][0]']      
                                                                                                  
 block35_2_conv (Conv2D)     (None, 25, 25, 320)          41280     ['block35_2_mixed[0][0]']     
                                                                                                  
 custom_scale_layer_81 (Cus  (None, 25, 25, 320)          0         ['block35_1_ac[0][0]',        
 tomScaleLayer)                                                      'block35_2_conv[0][0]']      
                                                                                                  
 block35_2_ac (Activation)   (None, 25, 25, 320)          0         ['custom_scale_layer_81[0][0]'
                                                                    ]                             
                                                                                                  
 conv2d_433 (Conv2D)         (None, 25, 25, 32)           10240     ['block35_2_ac[0][0]']        
                                                                                                  
 batch_normalization_433 (B  (None, 25, 25, 32)           96        ['conv2d_433[0][0]']          
 atchNormalization)                                                                               
                                                                                                  
 activation_433 (Activation  (None, 25, 25, 32)           0         ['batch_normalization_433[0][0
 )                                                                  ]']                           
                                                                                                  
 conv2d_431 (Conv2D)         (None, 25, 25, 32)           10240     ['block35_2_ac[0][0]']        
                                                                                                  
 conv2d_434 (Conv2D)         (None, 25, 25, 48)           13824     ['activation_433[0][0]']      
                                                                                                  
 batch_normalization_431 (B  (None, 25, 25, 32)           96        ['conv2d_431[0][0]']          
 atchNormalization)                                                                               
                                                                                                  
 batch_normalization_434 (B  (None, 25, 25, 48)           144       ['conv2d_434[0][0]']          
 atchNormalization)                                                                               
                                                                                                  
 activation_431 (Activation  (None, 25, 25, 32)           0         ['batch_normalization_431[0][0
 )                                                                  ]']                           
                                                                                                  
 activation_434 (Activation  (None, 25, 25, 48)           0         ['batch_normalization_434[0][0
 )                                                                  ]']                           
                                                                                                  
 conv2d_430 (Conv2D)         (None, 25, 25, 32)           10240     ['block35_2_ac[0][0]']        
                                                                                                  
 conv2d_432 (Conv2D)         (None, 25, 25, 32)           9216      ['activation_431[0][0]']      
                                                                                                  
 conv2d_435 (Conv2D)         (None, 25, 25, 64)           27648     ['activation_434[0][0]']      
                                                                                                  
 batch_normalization_430 (B  (None, 25, 25, 32)           96        ['conv2d_430[0][0]']          
 atchNormalization)                                                                               
                                                                                                  
 batch_normalization_432 (B  (None, 25, 25, 32)           96        ['conv2d_432[0][0]']          
 atchNormalization)                                                                               
                                                                                                  
 batch_normalization_435 (B  (None, 25, 25, 64)           192       ['conv2d_435[0][0]']          
 atchNormalization)                                                                               
                                                                                                  
 activation_430 (Activation  (None, 25, 25, 32)           0         ['batch_normalization_430[0][0
 )                                                                  ]']                           
                                                                                                  
 activation_432 (Activation  (None, 25, 25, 32)           0         ['batch_normalization_432[0][0
 )                                                                  ]']                           
                                                                                                  
 activation_435 (Activation  (None, 25, 25, 64)           0         ['batch_normalization_435[0][0
 )                                                                  ]']                           
                                                                                                  
 block35_3_mixed (Concatena  (None, 25, 25, 128)          0         ['activation_430[0][0]',      
 te)                                                                 'activation_432[0][0]',      
                                                                     'activation_435[0][0]']      
                                                                                                  
 block35_3_conv (Conv2D)     (None, 25, 25, 320)          41280     ['block35_3_mixed[0][0]']     
                                                                                                  
 custom_scale_layer_82 (Cus  (None, 25, 25, 320)          0         ['block35_2_ac[0][0]',        
 tomScaleLayer)                                                      'block35_3_conv[0][0]']      
                                                                                                  
 block35_3_ac (Activation)   (None, 25, 25, 320)          0         ['custom_scale_layer_82[0][0]'
                                                                    ]                             
                                                                                                  
 conv2d_439 (Conv2D)         (None, 25, 25, 32)           10240     ['block35_3_ac[0][0]']        
                                                                                                  
 batch_normalization_439 (B  (None, 25, 25, 32)           96        ['conv2d_439[0][0]']          
 atchNormalization)                                                                               
                                                                                                  
 activation_439 (Activation  (None, 25, 25, 32)           0         ['batch_normalization_439[0][0
 )                                                                  ]']                           
                                                                                                  
 conv2d_437 (Conv2D)         (None, 25, 25, 32)           10240     ['block35_3_ac[0][0]']        
                                                                                                  
 conv2d_440 (Conv2D)         (None, 25, 25, 48)           13824     ['activation_439[0][0]']      
                                                                                                  
 batch_normalization_437 (B  (None, 25, 25, 32)           96        ['conv2d_437[0][0]']          
 atchNormalization)                                                                               
                                                                                                  
 batch_normalization_440 (B  (None, 25, 25, 48)           144       ['conv2d_440[0][0]']          
 atchNormalization)                                                                               
                                                                                                  
 activation_437 (Activation  (None, 25, 25, 32)           0         ['batch_normalization_437[0][0
 )                                                                  ]']                           
                                                                                                  
 activation_440 (Activation  (None, 25, 25, 48)           0         ['batch_normalization_440[0][0
 )                                                                  ]']                           
                                                                                                  
 conv2d_436 (Conv2D)         (None, 25, 25, 32)           10240     ['block35_3_ac[0][0]']        
                                                                                                  
 conv2d_438 (Conv2D)         (None, 25, 25, 32)           9216      ['activation_437[0][0]']      
                                                                                                  
 conv2d_441 (Conv2D)         (None, 25, 25, 64)           27648     ['activation_440[0][0]']      
                                                                                                  
 batch_normalization_436 (B  (None, 25, 25, 32)           96        ['conv2d_436[0][0]']          
 atchNormalization)                                                                               
                                                                                                  
 batch_normalization_438 (B  (None, 25, 25, 32)           96        ['conv2d_438[0][0]']          
 atchNormalization)                                                                               
                                                                                                  
 batch_normalization_441 (B  (None, 25, 25, 64)           192       ['conv2d_441[0][0]']          
 atchNormalization)                                                                               
                                                                                                  
 activation_436 (Activation  (None, 25, 25, 32)           0         ['batch_normalization_436[0][0
 )                                                                  ]']                           
                                                                                                  
 activation_438 (Activation  (None, 25, 25, 32)           0         ['batch_normalization_438[0][0
 )                                                                  ]']                           
                                                                                                  
 activation_441 (Activation  (None, 25, 25, 64)           0         ['batch_normalization_441[0][0
 )                                                                  ]']                           
                                                                                                  
 block35_4_mixed (Concatena  (None, 25, 25, 128)          0         ['activation_436[0][0]',      
 te)                                                                 'activation_438[0][0]',      
                                                                     'activation_441[0][0]']      
                                                                                                  
 block35_4_conv (Conv2D)     (None, 25, 25, 320)          41280     ['block35_4_mixed[0][0]']     
                                                                                                  
 custom_scale_layer_83 (Cus  (None, 25, 25, 320)          0         ['block35_3_ac[0][0]',        
 tomScaleLayer)                                                      'block35_4_conv[0][0]']      
                                                                                                  
 block35_4_ac (Activation)   (None, 25, 25, 320)          0         ['custom_scale_layer_83[0][0]'
                                                                    ]                             
                                                                                                  
 conv2d_445 (Conv2D)         (None, 25, 25, 32)           10240     ['block35_4_ac[0][0]']        
                                                                                                  
 batch_normalization_445 (B  (None, 25, 25, 32)           96        ['conv2d_445[0][0]']          
 atchNormalization)                                                                               
                                                                                                  
 activation_445 (Activation  (None, 25, 25, 32)           0         ['batch_normalization_445[0][0
 )                                                                  ]']                           
                                                                                                  
 conv2d_443 (Conv2D)         (None, 25, 25, 32)           10240     ['block35_4_ac[0][0]']        
                                                                                                  
 conv2d_446 (Conv2D)         (None, 25, 25, 48)           13824     ['activation_445[0][0]']      
                                                                                                  
 batch_normalization_443 (B  (None, 25, 25, 32)           96        ['conv2d_443[0][0]']          
 atchNormalization)                                                                               
                                                                                                  
 batch_normalization_446 (B  (None, 25, 25, 48)           144       ['conv2d_446[0][0]']          
 atchNormalization)                                                                               
                                                                                                  
 activation_443 (Activation  (None, 25, 25, 32)           0         ['batch_normalization_443[0][0
 )                                                                  ]']                           
                                                                                                  
 activation_446 (Activation  (None, 25, 25, 48)           0         ['batch_normalization_446[0][0
 )                                                                  ]']                           
                                                                                                  
 conv2d_442 (Conv2D)         (None, 25, 25, 32)           10240     ['block35_4_ac[0][0]']        
                                                                                                  
 conv2d_444 (Conv2D)         (None, 25, 25, 32)           9216      ['activation_443[0][0]']      
                                                                                                  
 conv2d_447 (Conv2D)         (None, 25, 25, 64)           27648     ['activation_446[0][0]']      
                                                                                                  
 batch_normalization_442 (B  (None, 25, 25, 32)           96        ['conv2d_442[0][0]']          
 atchNormalization)                                                                               
                                                                                                  
 batch_normalization_444 (B  (None, 25, 25, 32)           96        ['conv2d_444[0][0]']          
 atchNormalization)                                                                               
                                                                                                  
 batch_normalization_447 (B  (None, 25, 25, 64)           192       ['conv2d_447[0][0]']          
 atchNormalization)                                                                               
                                                                                                  
 activation_442 (Activation  (None, 25, 25, 32)           0         ['batch_normalization_442[0][0
 )                                                                  ]']                           
                                                                                                  
 activation_444 (Activation  (None, 25, 25, 32)           0         ['batch_normalization_444[0][0
 )                                                                  ]']                           
                                                                                                  
 activation_447 (Activation  (None, 25, 25, 64)           0         ['batch_normalization_447[0][0
 )                                                                  ]']                           
                                                                                                  
 block35_5_mixed (Concatena  (None, 25, 25, 128)          0         ['activation_442[0][0]',      
 te)                                                                 'activation_444[0][0]',      
                                                                     'activation_447[0][0]']      
                                                                                                  
 block35_5_conv (Conv2D)     (None, 25, 25, 320)          41280     ['block35_5_mixed[0][0]']     
                                                                                                  
 custom_scale_layer_84 (Cus  (None, 25, 25, 320)          0         ['block35_4_ac[0][0]',        
 tomScaleLayer)                                                      'block35_5_conv[0][0]']      
                                                                                                  
 block35_5_ac (Activation)   (None, 25, 25, 320)          0         ['custom_scale_layer_84[0][0]'
                                                                    ]                             
                                                                                                  
 conv2d_451 (Conv2D)         (None, 25, 25, 32)           10240     ['block35_5_ac[0][0]']        
                                                                                                  
 batch_normalization_451 (B  (None, 25, 25, 32)           96        ['conv2d_451[0][0]']          
 atchNormalization)                                                                               
                                                                                                  
 activation_451 (Activation  (None, 25, 25, 32)           0         ['batch_normalization_451[0][0
 )                                                                  ]']                           
                                                                                                  
 conv2d_449 (Conv2D)         (None, 25, 25, 32)           10240     ['block35_5_ac[0][0]']        
                                                                                                  
 conv2d_452 (Conv2D)         (None, 25, 25, 48)           13824     ['activation_451[0][0]']      
                                                                                                  
 batch_normalization_449 (B  (None, 25, 25, 32)           96        ['conv2d_449[0][0]']          
 atchNormalization)                                                                               
                                                                                                  
 batch_normalization_452 (B  (None, 25, 25, 48)           144       ['conv2d_452[0][0]']          
 atchNormalization)                                                                               
                                                                                                  
 activation_449 (Activation  (None, 25, 25, 32)           0         ['batch_normalization_449[0][0
 )                                                                  ]']                           
                                                                                                  
 activation_452 (Activation  (None, 25, 25, 48)           0         ['batch_normalization_452[0][0
 )                                                                  ]']                           
                                                                                                  
 conv2d_448 (Conv2D)         (None, 25, 25, 32)           10240     ['block35_5_ac[0][0]']        
                                                                                                  
 conv2d_450 (Conv2D)         (None, 25, 25, 32)           9216      ['activation_449[0][0]']      
                                                                                                  
 conv2d_453 (Conv2D)         (None, 25, 25, 64)           27648     ['activation_452[0][0]']      
                                                                                                  
 batch_normalization_448 (B  (None, 25, 25, 32)           96        ['conv2d_448[0][0]']          
 atchNormalization)                                                                               
                                                                                                  
 batch_normalization_450 (B  (None, 25, 25, 32)           96        ['conv2d_450[0][0]']          
 atchNormalization)                                                                               
                                                                                                  
 batch_normalization_453 (B  (None, 25, 25, 64)           192       ['conv2d_453[0][0]']          
 atchNormalization)                                                                               
                                                                                                  
 activation_448 (Activation  (None, 25, 25, 32)           0         ['batch_normalization_448[0][0
 )                                                                  ]']                           
                                                                                                  
 activation_450 (Activation  (None, 25, 25, 32)           0         ['batch_normalization_450[0][0
 )                                                                  ]']                           
                                                                                                  
 activation_453 (Activation  (None, 25, 25, 64)           0         ['batch_normalization_453[0][0
 )                                                                  ]']                           
                                                                                                  
 block35_6_mixed (Concatena  (None, 25, 25, 128)          0         ['activation_448[0][0]',      
 te)                                                                 'activation_450[0][0]',      
                                                                     'activation_453[0][0]']      
                                                                                                  
 block35_6_conv (Conv2D)     (None, 25, 25, 320)          41280     ['block35_6_mixed[0][0]']     
                                                                                                  
 custom_scale_layer_85 (Cus  (None, 25, 25, 320)          0         ['block35_5_ac[0][0]',        
 tomScaleLayer)                                                      'block35_6_conv[0][0]']      
                                                                                                  
 block35_6_ac (Activation)   (None, 25, 25, 320)          0         ['custom_scale_layer_85[0][0]'
                                                                    ]                             
                                                                                                  
 conv2d_457 (Conv2D)         (None, 25, 25, 32)           10240     ['block35_6_ac[0][0]']        
                                                                                                  
 batch_normalization_457 (B  (None, 25, 25, 32)           96        ['conv2d_457[0][0]']          
 atchNormalization)                                                                               
                                                                                                  
 activation_457 (Activation  (None, 25, 25, 32)           0         ['batch_normalization_457[0][0
 )                                                                  ]']                           
                                                                                                  
 conv2d_455 (Conv2D)         (None, 25, 25, 32)           10240     ['block35_6_ac[0][0]']        
                                                                                                  
 conv2d_458 (Conv2D)         (None, 25, 25, 48)           13824     ['activation_457[0][0]']      
                                                                                                  
 batch_normalization_455 (B  (None, 25, 25, 32)           96        ['conv2d_455[0][0]']          
 atchNormalization)                                                                               
                                                                                                  
 batch_normalization_458 (B  (None, 25, 25, 48)           144       ['conv2d_458[0][0]']          
 atchNormalization)                                                                               
                                                                                                  
 activation_455 (Activation  (None, 25, 25, 32)           0         ['batch_normalization_455[0][0
 )                                                                  ]']                           
                                                                                                  
 activation_458 (Activation  (None, 25, 25, 48)           0         ['batch_normalization_458[0][0
 )                                                                  ]']                           
                                                                                                  
 conv2d_454 (Conv2D)         (None, 25, 25, 32)           10240     ['block35_6_ac[0][0]']        
                                                                                                  
 conv2d_456 (Conv2D)         (None, 25, 25, 32)           9216      ['activation_455[0][0]']      
                                                                                                  
 conv2d_459 (Conv2D)         (None, 25, 25, 64)           27648     ['activation_458[0][0]']      
                                                                                                  
 batch_normalization_454 (B  (None, 25, 25, 32)           96        ['conv2d_454[0][0]']          
 atchNormalization)                                                                               
                                                                                                  
 batch_normalization_456 (B  (None, 25, 25, 32)           96        ['conv2d_456[0][0]']          
 atchNormalization)                                                                               
                                                                                                  
 batch_normalization_459 (B  (None, 25, 25, 64)           192       ['conv2d_459[0][0]']          
 atchNormalization)                                                                               
                                                                                                  
 activation_454 (Activation  (None, 25, 25, 32)           0         ['batch_normalization_454[0][0
 )                                                                  ]']                           
                                                                                                  
 activation_456 (Activation  (None, 25, 25, 32)           0         ['batch_normalization_456[0][0
 )                                                                  ]']                           
                                                                                                  
 activation_459 (Activation  (None, 25, 25, 64)           0         ['batch_normalization_459[0][0
 )                                                                  ]']                           
                                                                                                  
 block35_7_mixed (Concatena  (None, 25, 25, 128)          0         ['activation_454[0][0]',      
 te)                                                                 'activation_456[0][0]',      
                                                                     'activation_459[0][0]']      
                                                                                                  
 block35_7_conv (Conv2D)     (None, 25, 25, 320)          41280     ['block35_7_mixed[0][0]']     
                                                                                                  
 custom_scale_layer_86 (Cus  (None, 25, 25, 320)          0         ['block35_6_ac[0][0]',        
 tomScaleLayer)                                                      'block35_7_conv[0][0]']      
                                                                                                  
 block35_7_ac (Activation)   (None, 25, 25, 320)          0         ['custom_scale_layer_86[0][0]'
                                                                    ]                             
                                                                                                  
 conv2d_463 (Conv2D)         (None, 25, 25, 32)           10240     ['block35_7_ac[0][0]']        
                                                                                                  
 batch_normalization_463 (B  (None, 25, 25, 32)           96        ['conv2d_463[0][0]']          
 atchNormalization)                                                                               
                                                                                                  
 activation_463 (Activation  (None, 25, 25, 32)           0         ['batch_normalization_463[0][0
 )                                                                  ]']                           
                                                                                                  
 conv2d_461 (Conv2D)         (None, 25, 25, 32)           10240     ['block35_7_ac[0][0]']        
                                                                                                  
 conv2d_464 (Conv2D)         (None, 25, 25, 48)           13824     ['activation_463[0][0]']      
                                                                                                  
 batch_normalization_461 (B  (None, 25, 25, 32)           96        ['conv2d_461[0][0]']          
 atchNormalization)                                                                               
                                                                                                  
 batch_normalization_464 (B  (None, 25, 25, 48)           144       ['conv2d_464[0][0]']          
 atchNormalization)                                                                               
                                                                                                  
 activation_461 (Activation  (None, 25, 25, 32)           0         ['batch_normalization_461[0][0
 )                                                                  ]']                           
                                                                                                  
 activation_464 (Activation  (None, 25, 25, 48)           0         ['batch_normalization_464[0][0
 )                                                                  ]']                           
                                                                                                  
 conv2d_460 (Conv2D)         (None, 25, 25, 32)           10240     ['block35_7_ac[0][0]']        
                                                                                                  
 conv2d_462 (Conv2D)         (None, 25, 25, 32)           9216      ['activation_461[0][0]']      
                                                                                                  
 conv2d_465 (Conv2D)         (None, 25, 25, 64)           27648     ['activation_464[0][0]']      
                                                                                                  
 batch_normalization_460 (B  (None, 25, 25, 32)           96        ['conv2d_460[0][0]']          
 atchNormalization)                                                                               
                                                                                                  
 batch_normalization_462 (B  (None, 25, 25, 32)           96        ['conv2d_462[0][0]']          
 atchNormalization)                                                                               
                                                                                                  
 batch_normalization_465 (B  (None, 25, 25, 64)           192       ['conv2d_465[0][0]']          
 atchNormalization)                                                                               
                                                                                                  
 activation_460 (Activation  (None, 25, 25, 32)           0         ['batch_normalization_460[0][0
 )                                                                  ]']                           
                                                                                                  
 activation_462 (Activation  (None, 25, 25, 32)           0         ['batch_normalization_462[0][0
 )                                                                  ]']                           
                                                                                                  
 activation_465 (Activation  (None, 25, 25, 64)           0         ['batch_normalization_465[0][0
 )                                                                  ]']                           
                                                                                                  
 block35_8_mixed (Concatena  (None, 25, 25, 128)          0         ['activation_460[0][0]',      
 te)                                                                 'activation_462[0][0]',      
                                                                     'activation_465[0][0]']      
                                                                                                  
 block35_8_conv (Conv2D)     (None, 25, 25, 320)          41280     ['block35_8_mixed[0][0]']     
                                                                                                  
 custom_scale_layer_87 (Cus  (None, 25, 25, 320)          0         ['block35_7_ac[0][0]',        
 tomScaleLayer)                                                      'block35_8_conv[0][0]']      
                                                                                                  
 block35_8_ac (Activation)   (None, 25, 25, 320)          0         ['custom_scale_layer_87[0][0]'
                                                                    ]                             
                                                                                                  
 conv2d_469 (Conv2D)         (None, 25, 25, 32)           10240     ['block35_8_ac[0][0]']        
                                                                                                  
 batch_normalization_469 (B  (None, 25, 25, 32)           96        ['conv2d_469[0][0]']          
 atchNormalization)                                                                               
                                                                                                  
 activation_469 (Activation  (None, 25, 25, 32)           0         ['batch_normalization_469[0][0
 )                                                                  ]']                           
                                                                                                  
 conv2d_467 (Conv2D)         (None, 25, 25, 32)           10240     ['block35_8_ac[0][0]']        
                                                                                                  
 conv2d_470 (Conv2D)         (None, 25, 25, 48)           13824     ['activation_469[0][0]']      
                                                                                                  
 batch_normalization_467 (B  (None, 25, 25, 32)           96        ['conv2d_467[0][0]']          
 atchNormalization)                                                                               
                                                                                                  
 batch_normalization_470 (B  (None, 25, 25, 48)           144       ['conv2d_470[0][0]']          
 atchNormalization)                                                                               
                                                                                                  
 activation_467 (Activation  (None, 25, 25, 32)           0         ['batch_normalization_467[0][0
 )                                                                  ]']                           
                                                                                                  
 activation_470 (Activation  (None, 25, 25, 48)           0         ['batch_normalization_470[0][0
 )                                                                  ]']                           
                                                                                                  
 conv2d_466 (Conv2D)         (None, 25, 25, 32)           10240     ['block35_8_ac[0][0]']        
                                                                                                  
 conv2d_468 (Conv2D)         (None, 25, 25, 32)           9216      ['activation_467[0][0]']      
                                                                                                  
 conv2d_471 (Conv2D)         (None, 25, 25, 64)           27648     ['activation_470[0][0]']      
                                                                                                  
 batch_normalization_466 (B  (None, 25, 25, 32)           96        ['conv2d_466[0][0]']          
 atchNormalization)                                                                               
                                                                                                  
 batch_normalization_468 (B  (None, 25, 25, 32)           96        ['conv2d_468[0][0]']          
 atchNormalization)                                                                               
                                                                                                  
 batch_normalization_471 (B  (None, 25, 25, 64)           192       ['conv2d_471[0][0]']          
 atchNormalization)                                                                               
                                                                                                  
 activation_466 (Activation  (None, 25, 25, 32)           0         ['batch_normalization_466[0][0
 )                                                                  ]']                           
                                                                                                  
 activation_468 (Activation  (None, 25, 25, 32)           0         ['batch_normalization_468[0][0
 )                                                                  ]']                           
                                                                                                  
 activation_471 (Activation  (None, 25, 25, 64)           0         ['batch_normalization_471[0][0
 )                                                                  ]']                           
                                                                                                  
 block35_9_mixed (Concatena  (None, 25, 25, 128)          0         ['activation_466[0][0]',      
 te)                                                                 'activation_468[0][0]',      
                                                                     'activation_471[0][0]']      
                                                                                                  
 block35_9_conv (Conv2D)     (None, 25, 25, 320)          41280     ['block35_9_mixed[0][0]']     
                                                                                                  
 custom_scale_layer_88 (Cus  (None, 25, 25, 320)          0         ['block35_8_ac[0][0]',        
 tomScaleLayer)                                                      'block35_9_conv[0][0]']      
                                                                                                  
 block35_9_ac (Activation)   (None, 25, 25, 320)          0         ['custom_scale_layer_88[0][0]'
                                                                    ]                             
                                                                                                  
 conv2d_475 (Conv2D)         (None, 25, 25, 32)           10240     ['block35_9_ac[0][0]']        
                                                                                                  
 batch_normalization_475 (B  (None, 25, 25, 32)           96        ['conv2d_475[0][0]']          
 atchNormalization)                                                                               
                                                                                                  
 activation_475 (Activation  (None, 25, 25, 32)           0         ['batch_normalization_475[0][0
 )                                                                  ]']                           
                                                                                                  
 conv2d_473 (Conv2D)         (None, 25, 25, 32)           10240     ['block35_9_ac[0][0]']        
                                                                                                  
 conv2d_476 (Conv2D)         (None, 25, 25, 48)           13824     ['activation_475[0][0]']      
                                                                                                  
 batch_normalization_473 (B  (None, 25, 25, 32)           96        ['conv2d_473[0][0]']          
 atchNormalization)                                                                               
                                                                                                  
 batch_normalization_476 (B  (None, 25, 25, 48)           144       ['conv2d_476[0][0]']          
 atchNormalization)                                                                               
                                                                                                  
 activation_473 (Activation  (None, 25, 25, 32)           0         ['batch_normalization_473[0][0
 )                                                                  ]']                           
                                                                                                  
 activation_476 (Activation  (None, 25, 25, 48)           0         ['batch_normalization_476[0][0
 )                                                                  ]']                           
                                                                                                  
 conv2d_472 (Conv2D)         (None, 25, 25, 32)           10240     ['block35_9_ac[0][0]']        
                                                                                                  
 conv2d_474 (Conv2D)         (None, 25, 25, 32)           9216      ['activation_473[0][0]']      
                                                                                                  
 conv2d_477 (Conv2D)         (None, 25, 25, 64)           27648     ['activation_476[0][0]']      
                                                                                                  
 batch_normalization_472 (B  (None, 25, 25, 32)           96        ['conv2d_472[0][0]']          
 atchNormalization)                                                                               
                                                                                                  
 batch_normalization_474 (B  (None, 25, 25, 32)           96        ['conv2d_474[0][0]']          
 atchNormalization)                                                                               
                                                                                                  
 batch_normalization_477 (B  (None, 25, 25, 64)           192       ['conv2d_477[0][0]']          
 atchNormalization)                                                                               
                                                                                                  
 activation_472 (Activation  (None, 25, 25, 32)           0         ['batch_normalization_472[0][0
 )                                                                  ]']                           
                                                                                                  
 activation_474 (Activation  (None, 25, 25, 32)           0         ['batch_normalization_474[0][0
 )                                                                  ]']                           
                                                                                                  
 activation_477 (Activation  (None, 25, 25, 64)           0         ['batch_normalization_477[0][0
 )                                                                  ]']                           
                                                                                                  
 block35_10_mixed (Concaten  (None, 25, 25, 128)          0         ['activation_472[0][0]',      
 ate)                                                                'activation_474[0][0]',      
                                                                     'activation_477[0][0]']      
                                                                                                  
 block35_10_conv (Conv2D)    (None, 25, 25, 320)          41280     ['block35_10_mixed[0][0]']    
                                                                                                  
 custom_scale_layer_89 (Cus  (None, 25, 25, 320)          0         ['block35_9_ac[0][0]',        
 tomScaleLayer)                                                      'block35_10_conv[0][0]']     
                                                                                                  
 block35_10_ac (Activation)  (None, 25, 25, 320)          0         ['custom_scale_layer_89[0][0]'
                                                                    ]                             
                                                                                                  
 conv2d_479 (Conv2D)         (None, 25, 25, 256)          81920     ['block35_10_ac[0][0]']       
                                                                                                  
 batch_normalization_479 (B  (None, 25, 25, 256)          768       ['conv2d_479[0][0]']          
 atchNormalization)                                                                               
                                                                                                  
 activation_479 (Activation  (None, 25, 25, 256)          0         ['batch_normalization_479[0][0
 )                                                                  ]']                           
                                                                                                  
 conv2d_480 (Conv2D)         (None, 25, 25, 256)          589824    ['activation_479[0][0]']      
                                                                                                  
 batch_normalization_480 (B  (None, 25, 25, 256)          768       ['conv2d_480[0][0]']          
 atchNormalization)                                                                               
                                                                                                  
 activation_480 (Activation  (None, 25, 25, 256)          0         ['batch_normalization_480[0][0
 )                                                                  ]']                           
                                                                                                  
 conv2d_478 (Conv2D)         (None, 12, 12, 384)          1105920   ['block35_10_ac[0][0]']       
                                                                                                  
 conv2d_481 (Conv2D)         (None, 12, 12, 384)          884736    ['activation_480[0][0]']      
                                                                                                  
 batch_normalization_478 (B  (None, 12, 12, 384)          1152      ['conv2d_478[0][0]']          
 atchNormalization)                                                                               
                                                                                                  
 batch_normalization_481 (B  (None, 12, 12, 384)          1152      ['conv2d_481[0][0]']          
 atchNormalization)                                                                               
                                                                                                  
 activation_478 (Activation  (None, 12, 12, 384)          0         ['batch_normalization_478[0][0
 )                                                                  ]']                           
                                                                                                  
 activation_481 (Activation  (None, 12, 12, 384)          0         ['batch_normalization_481[0][0
 )                                                                  ]']                           
                                                                                                  
 max_pooling2d_10 (MaxPooli  (None, 12, 12, 320)          0         ['block35_10_ac[0][0]']       
 ng2D)                                                                                            
                                                                                                  
 mixed_6a (Concatenate)      (None, 12, 12, 1088)         0         ['activation_478[0][0]',      
                                                                     'activation_481[0][0]',      
                                                                     'max_pooling2d_10[0][0]']    
                                                                                                  
 conv2d_483 (Conv2D)         (None, 12, 12, 128)          139264    ['mixed_6a[0][0]']            
                                                                                                  
 batch_normalization_483 (B  (None, 12, 12, 128)          384       ['conv2d_483[0][0]']          
 atchNormalization)                                                                               
                                                                                                  
 activation_483 (Activation  (None, 12, 12, 128)          0         ['batch_normalization_483[0][0
 )                                                                  ]']                           
                                                                                                  
 conv2d_484 (Conv2D)         (None, 12, 12, 160)          143360    ['activation_483[0][0]']      
                                                                                                  
 batch_normalization_484 (B  (None, 12, 12, 160)          480       ['conv2d_484[0][0]']          
 atchNormalization)                                                                               
                                                                                                  
 activation_484 (Activation  (None, 12, 12, 160)          0         ['batch_normalization_484[0][0
 )                                                                  ]']                           
                                                                                                  
 conv2d_482 (Conv2D)         (None, 12, 12, 192)          208896    ['mixed_6a[0][0]']            
                                                                                                  
 conv2d_485 (Conv2D)         (None, 12, 12, 192)          215040    ['activation_484[0][0]']      
                                                                                                  
 batch_normalization_482 (B  (None, 12, 12, 192)          576       ['conv2d_482[0][0]']          
 atchNormalization)                                                                               
                                                                                                  
 batch_normalization_485 (B  (None, 12, 12, 192)          576       ['conv2d_485[0][0]']          
 atchNormalization)                                                                               
                                                                                                  
 activation_482 (Activation  (None, 12, 12, 192)          0         ['batch_normalization_482[0][0
 )                                                                  ]']                           
                                                                                                  
 activation_485 (Activation  (None, 12, 12, 192)          0         ['batch_normalization_485[0][0
 )                                                                  ]']                           
                                                                                                  
 block17_1_mixed (Concatena  (None, 12, 12, 384)          0         ['activation_482[0][0]',      
 te)                                                                 'activation_485[0][0]']      
                                                                                                  
 block17_1_conv (Conv2D)     (None, 12, 12, 1088)         418880    ['block17_1_mixed[0][0]']     
                                                                                                  
 custom_scale_layer_90 (Cus  (None, 12, 12, 1088)         0         ['mixed_6a[0][0]',            
 tomScaleLayer)                                                      'block17_1_conv[0][0]']      
                                                                                                  
 block17_1_ac (Activation)   (None, 12, 12, 1088)         0         ['custom_scale_layer_90[0][0]'
                                                                    ]                             
                                                                                                  
 conv2d_487 (Conv2D)         (None, 12, 12, 128)          139264    ['block17_1_ac[0][0]']        
                                                                                                  
 batch_normalization_487 (B  (None, 12, 12, 128)          384       ['conv2d_487[0][0]']          
 atchNormalization)                                                                               
                                                                                                  
 activation_487 (Activation  (None, 12, 12, 128)          0         ['batch_normalization_487[0][0
 )                                                                  ]']                           
                                                                                                  
 conv2d_488 (Conv2D)         (None, 12, 12, 160)          143360    ['activation_487[0][0]']      
                                                                                                  
 batch_normalization_488 (B  (None, 12, 12, 160)          480       ['conv2d_488[0][0]']          
 atchNormalization)                                                                               
                                                                                                  
 activation_488 (Activation  (None, 12, 12, 160)          0         ['batch_normalization_488[0][0
 )                                                                  ]']                           
                                                                                                  
 conv2d_486 (Conv2D)         (None, 12, 12, 192)          208896    ['block17_1_ac[0][0]']        
                                                                                                  
 conv2d_489 (Conv2D)         (None, 12, 12, 192)          215040    ['activation_488[0][0]']      
                                                                                                  
 batch_normalization_486 (B  (None, 12, 12, 192)          576       ['conv2d_486[0][0]']          
 atchNormalization)                                                                               
                                                                                                  
 batch_normalization_489 (B  (None, 12, 12, 192)          576       ['conv2d_489[0][0]']          
 atchNormalization)                                                                               
                                                                                                  
 activation_486 (Activation  (None, 12, 12, 192)          0         ['batch_normalization_486[0][0
 )                                                                  ]']                           
                                                                                                  
 activation_489 (Activation  (None, 12, 12, 192)          0         ['batch_normalization_489[0][0
 )                                                                  ]']                           
                                                                                                  
 block17_2_mixed (Concatena  (None, 12, 12, 384)          0         ['activation_486[0][0]',      
 te)                                                                 'activation_489[0][0]']      
                                                                                                  
 block17_2_conv (Conv2D)     (None, 12, 12, 1088)         418880    ['block17_2_mixed[0][0]']     
                                                                                                  
 custom_scale_layer_91 (Cus  (None, 12, 12, 1088)         0         ['block17_1_ac[0][0]',        
 tomScaleLayer)                                                      'block17_2_conv[0][0]']      
                                                                                                  
 block17_2_ac (Activation)   (None, 12, 12, 1088)         0         ['custom_scale_layer_91[0][0]'
                                                                    ]                             
                                                                                                  
 conv2d_491 (Conv2D)         (None, 12, 12, 128)          139264    ['block17_2_ac[0][0]']        
                                                                                                  
 batch_normalization_491 (B  (None, 12, 12, 128)          384       ['conv2d_491[0][0]']          
 atchNormalization)                                                                               
                                                                                                  
 activation_491 (Activation  (None, 12, 12, 128)          0         ['batch_normalization_491[0][0
 )                                                                  ]']                           
                                                                                                  
 conv2d_492 (Conv2D)         (None, 12, 12, 160)          143360    ['activation_491[0][0]']      
                                                                                                  
 batch_normalization_492 (B  (None, 12, 12, 160)          480       ['conv2d_492[0][0]']          
 atchNormalization)                                                                               
                                                                                                  
 activation_492 (Activation  (None, 12, 12, 160)          0         ['batch_normalization_492[0][0
 )                                                                  ]']                           
                                                                                                  
 conv2d_490 (Conv2D)         (None, 12, 12, 192)          208896    ['block17_2_ac[0][0]']        
                                                                                                  
 conv2d_493 (Conv2D)         (None, 12, 12, 192)          215040    ['activation_492[0][0]']      
                                                                                                  
 batch_normalization_490 (B  (None, 12, 12, 192)          576       ['conv2d_490[0][0]']          
 atchNormalization)                                                                               
                                                                                                  
 batch_normalization_493 (B  (None, 12, 12, 192)          576       ['conv2d_493[0][0]']          
 atchNormalization)                                                                               
                                                                                                  
 activation_490 (Activation  (None, 12, 12, 192)          0         ['batch_normalization_490[0][0
 )                                                                  ]']                           
                                                                                                  
 activation_493 (Activation  (None, 12, 12, 192)          0         ['batch_normalization_493[0][0
 )                                                                  ]']                           
                                                                                                  
 block17_3_mixed (Concatena  (None, 12, 12, 384)          0         ['activation_490[0][0]',      
 te)                                                                 'activation_493[0][0]']      
                                                                                                  
 block17_3_conv (Conv2D)     (None, 12, 12, 1088)         418880    ['block17_3_mixed[0][0]']     
                                                                                                  
 custom_scale_layer_92 (Cus  (None, 12, 12, 1088)         0         ['block17_2_ac[0][0]',        
 tomScaleLayer)                                                      'block17_3_conv[0][0]']      
                                                                                                  
 block17_3_ac (Activation)   (None, 12, 12, 1088)         0         ['custom_scale_layer_92[0][0]'
                                                                    ]                             
                                                                                                  
 conv2d_495 (Conv2D)         (None, 12, 12, 128)          139264    ['block17_3_ac[0][0]']        
                                                                                                  
 batch_normalization_495 (B  (None, 12, 12, 128)          384       ['conv2d_495[0][0]']          
 atchNormalization)                                                                               
                                                                                                  
 activation_495 (Activation  (None, 12, 12, 128)          0         ['batch_normalization_495[0][0
 )                                                                  ]']                           
                                                                                                  
 conv2d_496 (Conv2D)         (None, 12, 12, 160)          143360    ['activation_495[0][0]']      
                                                                                                  
 batch_normalization_496 (B  (None, 12, 12, 160)          480       ['conv2d_496[0][0]']          
 atchNormalization)                                                                               
                                                                                                  
 activation_496 (Activation  (None, 12, 12, 160)          0         ['batch_normalization_496[0][0
 )                                                                  ]']                           
                                                                                                  
 conv2d_494 (Conv2D)         (None, 12, 12, 192)          208896    ['block17_3_ac[0][0]']        
                                                                                                  
 conv2d_497 (Conv2D)         (None, 12, 12, 192)          215040    ['activation_496[0][0]']      
                                                                                                  
 batch_normalization_494 (B  (None, 12, 12, 192)          576       ['conv2d_494[0][0]']          
 atchNormalization)                                                                               
                                                                                                  
 batch_normalization_497 (B  (None, 12, 12, 192)          576       ['conv2d_497[0][0]']          
 atchNormalization)                                                                               
                                                                                                  
 activation_494 (Activation  (None, 12, 12, 192)          0         ['batch_normalization_494[0][0
 )                                                                  ]']                           
                                                                                                  
 activation_497 (Activation  (None, 12, 12, 192)          0         ['batch_normalization_497[0][0
 )                                                                  ]']                           
                                                                                                  
 block17_4_mixed (Concatena  (None, 12, 12, 384)          0         ['activation_494[0][0]',      
 te)                                                                 'activation_497[0][0]']      
                                                                                                  
 block17_4_conv (Conv2D)     (None, 12, 12, 1088)         418880    ['block17_4_mixed[0][0]']     
                                                                                                  
 custom_scale_layer_93 (Cus  (None, 12, 12, 1088)         0         ['block17_3_ac[0][0]',        
 tomScaleLayer)                                                      'block17_4_conv[0][0]']      
                                                                                                  
 block17_4_ac (Activation)   (None, 12, 12, 1088)         0         ['custom_scale_layer_93[0][0]'
                                                                    ]                             
                                                                                                  
 conv2d_499 (Conv2D)         (None, 12, 12, 128)          139264    ['block17_4_ac[0][0]']        
                                                                                                  
 batch_normalization_499 (B  (None, 12, 12, 128)          384       ['conv2d_499[0][0]']          
 atchNormalization)                                                                               
                                                                                                  
 activation_499 (Activation  (None, 12, 12, 128)          0         ['batch_normalization_499[0][0
 )                                                                  ]']                           
                                                                                                  
 conv2d_500 (Conv2D)         (None, 12, 12, 160)          143360    ['activation_499[0][0]']      
                                                                                                  
 batch_normalization_500 (B  (None, 12, 12, 160)          480       ['conv2d_500[0][0]']          
 atchNormalization)                                                                               
                                                                                                  
 activation_500 (Activation  (None, 12, 12, 160)          0         ['batch_normalization_500[0][0
 )                                                                  ]']                           
                                                                                                  
 conv2d_498 (Conv2D)         (None, 12, 12, 192)          208896    ['block17_4_ac[0][0]']        
                                                                                                  
 conv2d_501 (Conv2D)         (None, 12, 12, 192)          215040    ['activation_500[0][0]']      
                                                                                                  
 batch_normalization_498 (B  (None, 12, 12, 192)          576       ['conv2d_498[0][0]']          
 atchNormalization)                                                                               
                                                                                                  
 batch_normalization_501 (B  (None, 12, 12, 192)          576       ['conv2d_501[0][0]']          
 atchNormalization)                                                                               
                                                                                                  
 activation_498 (Activation  (None, 12, 12, 192)          0         ['batch_normalization_498[0][0
 )                                                                  ]']                           
                                                                                                  
 activation_501 (Activation  (None, 12, 12, 192)          0         ['batch_normalization_501[0][0
 )                                                                  ]']                           
                                                                                                  
 block17_5_mixed (Concatena  (None, 12, 12, 384)          0         ['activation_498[0][0]',      
 te)                                                                 'activation_501[0][0]']      
                                                                                                  
 block17_5_conv (Conv2D)     (None, 12, 12, 1088)         418880    ['block17_5_mixed[0][0]']     
                                                                                                  
 custom_scale_layer_94 (Cus  (None, 12, 12, 1088)         0         ['block17_4_ac[0][0]',        
 tomScaleLayer)                                                      'block17_5_conv[0][0]']      
                                                                                                  
 block17_5_ac (Activation)   (None, 12, 12, 1088)         0         ['custom_scale_layer_94[0][0]'
                                                                    ]                             
                                                                                                  
 conv2d_503 (Conv2D)         (None, 12, 12, 128)          139264    ['block17_5_ac[0][0]']        
                                                                                                  
 batch_normalization_503 (B  (None, 12, 12, 128)          384       ['conv2d_503[0][0]']          
 atchNormalization)                                                                               
                                                                                                  
 activation_503 (Activation  (None, 12, 12, 128)          0         ['batch_normalization_503[0][0
 )                                                                  ]']                           
                                                                                                  
 conv2d_504 (Conv2D)         (None, 12, 12, 160)          143360    ['activation_503[0][0]']      
                                                                                                  
 batch_normalization_504 (B  (None, 12, 12, 160)          480       ['conv2d_504[0][0]']          
 atchNormalization)                                                                               
                                                                                                  
 activation_504 (Activation  (None, 12, 12, 160)          0         ['batch_normalization_504[0][0
 )                                                                  ]']                           
                                                                                                  
 conv2d_502 (Conv2D)         (None, 12, 12, 192)          208896    ['block17_5_ac[0][0]']        
                                                                                                  
 conv2d_505 (Conv2D)         (None, 12, 12, 192)          215040    ['activation_504[0][0]']      
                                                                                                  
 batch_normalization_502 (B  (None, 12, 12, 192)          576       ['conv2d_502[0][0]']          
 atchNormalization)                                                                               
                                                                                                  
 batch_normalization_505 (B  (None, 12, 12, 192)          576       ['conv2d_505[0][0]']          
 atchNormalization)                                                                               
                                                                                                  
 activation_502 (Activation  (None, 12, 12, 192)          0         ['batch_normalization_502[0][0
 )                                                                  ]']                           
                                                                                                  
 activation_505 (Activation  (None, 12, 12, 192)          0         ['batch_normalization_505[0][0
 )                                                                  ]']                           
                                                                                                  
 block17_6_mixed (Concatena  (None, 12, 12, 384)          0         ['activation_502[0][0]',      
 te)                                                                 'activation_505[0][0]']      
                                                                                                  
 block17_6_conv (Conv2D)     (None, 12, 12, 1088)         418880    ['block17_6_mixed[0][0]']     
                                                                                                  
 custom_scale_layer_95 (Cus  (None, 12, 12, 1088)         0         ['block17_5_ac[0][0]',        
 tomScaleLayer)                                                      'block17_6_conv[0][0]']      
                                                                                                  
 block17_6_ac (Activation)   (None, 12, 12, 1088)         0         ['custom_scale_layer_95[0][0]'
                                                                    ]                             
                                                                                                  
 conv2d_507 (Conv2D)         (None, 12, 12, 128)          139264    ['block17_6_ac[0][0]']        
                                                                                                  
 batch_normalization_507 (B  (None, 12, 12, 128)          384       ['conv2d_507[0][0]']          
 atchNormalization)                                                                               
                                                                                                  
 activation_507 (Activation  (None, 12, 12, 128)          0         ['batch_normalization_507[0][0
 )                                                                  ]']                           
                                                                                                  
 conv2d_508 (Conv2D)         (None, 12, 12, 160)          143360    ['activation_507[0][0]']      
                                                                                                  
 batch_normalization_508 (B  (None, 12, 12, 160)          480       ['conv2d_508[0][0]']          
 atchNormalization)                                                                               
                                                                                                  
 activation_508 (Activation  (None, 12, 12, 160)          0         ['batch_normalization_508[0][0
 )                                                                  ]']                           
                                                                                                  
 conv2d_506 (Conv2D)         (None, 12, 12, 192)          208896    ['block17_6_ac[0][0]']        
                                                                                                  
 conv2d_509 (Conv2D)         (None, 12, 12, 192)          215040    ['activation_508[0][0]']      
                                                                                                  
 batch_normalization_506 (B  (None, 12, 12, 192)          576       ['conv2d_506[0][0]']          
 atchNormalization)                                                                               
                                                                                                  
 batch_normalization_509 (B  (None, 12, 12, 192)          576       ['conv2d_509[0][0]']          
 atchNormalization)                                                                               
                                                                                                  
 activation_506 (Activation  (None, 12, 12, 192)          0         ['batch_normalization_506[0][0
 )                                                                  ]']                           
                                                                                                  
 activation_509 (Activation  (None, 12, 12, 192)          0         ['batch_normalization_509[0][0
 )                                                                  ]']                           
                                                                                                  
 block17_7_mixed (Concatena  (None, 12, 12, 384)          0         ['activation_506[0][0]',      
 te)                                                                 'activation_509[0][0]']      
                                                                                                  
 block17_7_conv (Conv2D)     (None, 12, 12, 1088)         418880    ['block17_7_mixed[0][0]']     
                                                                                                  
 custom_scale_layer_96 (Cus  (None, 12, 12, 1088)         0         ['block17_6_ac[0][0]',        
 tomScaleLayer)                                                      'block17_7_conv[0][0]']      
                                                                                                  
 block17_7_ac (Activation)   (None, 12, 12, 1088)         0         ['custom_scale_layer_96[0][0]'
                                                                    ]                             
                                                                                                  
 conv2d_511 (Conv2D)         (None, 12, 12, 128)          139264    ['block17_7_ac[0][0]']        
                                                                                                  
 batch_normalization_511 (B  (None, 12, 12, 128)          384       ['conv2d_511[0][0]']          
 atchNormalization)                                                                               
                                                                                                  
 activation_511 (Activation  (None, 12, 12, 128)          0         ['batch_normalization_511[0][0
 )                                                                  ]']                           
                                                                                                  
 conv2d_512 (Conv2D)         (None, 12, 12, 160)          143360    ['activation_511[0][0]']      
                                                                                                  
 batch_normalization_512 (B  (None, 12, 12, 160)          480       ['conv2d_512[0][0]']          
 atchNormalization)                                                                               
                                                                                                  
 activation_512 (Activation  (None, 12, 12, 160)          0         ['batch_normalization_512[0][0
 )                                                                  ]']                           
                                                                                                  
 conv2d_510 (Conv2D)         (None, 12, 12, 192)          208896    ['block17_7_ac[0][0]']        
                                                                                                  
 conv2d_513 (Conv2D)         (None, 12, 12, 192)          215040    ['activation_512[0][0]']      
                                                                                                  
 batch_normalization_510 (B  (None, 12, 12, 192)          576       ['conv2d_510[0][0]']          
 atchNormalization)                                                                               
                                                                                                  
 batch_normalization_513 (B  (None, 12, 12, 192)          576       ['conv2d_513[0][0]']          
 atchNormalization)                                                                               
                                                                                                  
 activation_510 (Activation  (None, 12, 12, 192)          0         ['batch_normalization_510[0][0
 )                                                                  ]']                           
                                                                                                  
 activation_513 (Activation  (None, 12, 12, 192)          0         ['batch_normalization_513[0][0
 )                                                                  ]']                           
                                                                                                  
 block17_8_mixed (Concatena  (None, 12, 12, 384)          0         ['activation_510[0][0]',      
 te)                                                                 'activation_513[0][0]']      
                                                                                                  
 block17_8_conv (Conv2D)     (None, 12, 12, 1088)         418880    ['block17_8_mixed[0][0]']     
                                                                                                  
 custom_scale_layer_97 (Cus  (None, 12, 12, 1088)         0         ['block17_7_ac[0][0]',        
 tomScaleLayer)                                                      'block17_8_conv[0][0]']      
                                                                                                  
 block17_8_ac (Activation)   (None, 12, 12, 1088)         0         ['custom_scale_layer_97[0][0]'
                                                                    ]                             
                                                                                                  
 conv2d_515 (Conv2D)         (None, 12, 12, 128)          139264    ['block17_8_ac[0][0]']        
                                                                                                  
 batch_normalization_515 (B  (None, 12, 12, 128)          384       ['conv2d_515[0][0]']          
 atchNormalization)                                                                               
                                                                                                  
 activation_515 (Activation  (None, 12, 12, 128)          0         ['batch_normalization_515[0][0
 )                                                                  ]']                           
                                                                                                  
 conv2d_516 (Conv2D)         (None, 12, 12, 160)          143360    ['activation_515[0][0]']      
                                                                                                  
 batch_normalization_516 (B  (None, 12, 12, 160)          480       ['conv2d_516[0][0]']          
 atchNormalization)                                                                               
                                                                                                  
 activation_516 (Activation  (None, 12, 12, 160)          0         ['batch_normalization_516[0][0
 )                                                                  ]']                           
                                                                                                  
 conv2d_514 (Conv2D)         (None, 12, 12, 192)          208896    ['block17_8_ac[0][0]']        
                                                                                                  
 conv2d_517 (Conv2D)         (None, 12, 12, 192)          215040    ['activation_516[0][0]']      
                                                                                                  
 batch_normalization_514 (B  (None, 12, 12, 192)          576       ['conv2d_514[0][0]']          
 atchNormalization)                                                                               
                                                                                                  
 batch_normalization_517 (B  (None, 12, 12, 192)          576       ['conv2d_517[0][0]']          
 atchNormalization)                                                                               
                                                                                                  
 activation_514 (Activation  (None, 12, 12, 192)          0         ['batch_normalization_514[0][0
 )                                                                  ]']                           
                                                                                                  
 activation_517 (Activation  (None, 12, 12, 192)          0         ['batch_normalization_517[0][0
 )                                                                  ]']                           
                                                                                                  
 block17_9_mixed (Concatena  (None, 12, 12, 384)          0         ['activation_514[0][0]',      
 te)                                                                 'activation_517[0][0]']      
                                                                                                  
 block17_9_conv (Conv2D)     (None, 12, 12, 1088)         418880    ['block17_9_mixed[0][0]']     
                                                                                                  
 custom_scale_layer_98 (Cus  (None, 12, 12, 1088)         0         ['block17_8_ac[0][0]',        
 tomScaleLayer)                                                      'block17_9_conv[0][0]']      
                                                                                                  
 block17_9_ac (Activation)   (None, 12, 12, 1088)         0         ['custom_scale_layer_98[0][0]'
                                                                    ]                             
                                                                                                  
 conv2d_519 (Conv2D)         (None, 12, 12, 128)          139264    ['block17_9_ac[0][0]']        
                                                                                                  
 batch_normalization_519 (B  (None, 12, 12, 128)          384       ['conv2d_519[0][0]']          
 atchNormalization)                                                                               
                                                                                                  
 activation_519 (Activation  (None, 12, 12, 128)          0         ['batch_normalization_519[0][0
 )                                                                  ]']                           
                                                                                                  
 conv2d_520 (Conv2D)         (None, 12, 12, 160)          143360    ['activation_519[0][0]']      
                                                                                                  
 batch_normalization_520 (B  (None, 12, 12, 160)          480       ['conv2d_520[0][0]']          
 atchNormalization)                                                                               
                                                                                                  
 activation_520 (Activation  (None, 12, 12, 160)          0         ['batch_normalization_520[0][0
 )                                                                  ]']                           
                                                                                                  
 conv2d_518 (Conv2D)         (None, 12, 12, 192)          208896    ['block17_9_ac[0][0]']        
                                                                                                  
 conv2d_521 (Conv2D)         (None, 12, 12, 192)          215040    ['activation_520[0][0]']      
                                                                                                  
 batch_normalization_518 (B  (None, 12, 12, 192)          576       ['conv2d_518[0][0]']          
 atchNormalization)                                                                               
                                                                                                  
 batch_normalization_521 (B  (None, 12, 12, 192)          576       ['conv2d_521[0][0]']          
 atchNormalization)                                                                               
                                                                                                  
 activation_518 (Activation  (None, 12, 12, 192)          0         ['batch_normalization_518[0][0
 )                                                                  ]']                           
                                                                                                  
 activation_521 (Activation  (None, 12, 12, 192)          0         ['batch_normalization_521[0][0
 )                                                                  ]']                           
                                                                                                  
 block17_10_mixed (Concaten  (None, 12, 12, 384)          0         ['activation_518[0][0]',      
 ate)                                                                'activation_521[0][0]']      
                                                                                                  
 block17_10_conv (Conv2D)    (None, 12, 12, 1088)         418880    ['block17_10_mixed[0][0]']    
                                                                                                  
 custom_scale_layer_99 (Cus  (None, 12, 12, 1088)         0         ['block17_9_ac[0][0]',        
 tomScaleLayer)                                                      'block17_10_conv[0][0]']     
                                                                                                  
 block17_10_ac (Activation)  (None, 12, 12, 1088)         0         ['custom_scale_layer_99[0][0]'
                                                                    ]                             
                                                                                                  
 conv2d_523 (Conv2D)         (None, 12, 12, 128)          139264    ['block17_10_ac[0][0]']       
                                                                                                  
 batch_normalization_523 (B  (None, 12, 12, 128)          384       ['conv2d_523[0][0]']          
 atchNormalization)                                                                               
                                                                                                  
 activation_523 (Activation  (None, 12, 12, 128)          0         ['batch_normalization_523[0][0
 )                                                                  ]']                           
                                                                                                  
 conv2d_524 (Conv2D)         (None, 12, 12, 160)          143360    ['activation_523[0][0]']      
                                                                                                  
 batch_normalization_524 (B  (None, 12, 12, 160)          480       ['conv2d_524[0][0]']          
 atchNormalization)                                                                               
                                                                                                  
 activation_524 (Activation  (None, 12, 12, 160)          0         ['batch_normalization_524[0][0
 )                                                                  ]']                           
                                                                                                  
 conv2d_522 (Conv2D)         (None, 12, 12, 192)          208896    ['block17_10_ac[0][0]']       
                                                                                                  
 conv2d_525 (Conv2D)         (None, 12, 12, 192)          215040    ['activation_524[0][0]']      
                                                                                                  
 batch_normalization_522 (B  (None, 12, 12, 192)          576       ['conv2d_522[0][0]']          
 atchNormalization)                                                                               
                                                                                                  
 batch_normalization_525 (B  (None, 12, 12, 192)          576       ['conv2d_525[0][0]']          
 atchNormalization)                                                                               
                                                                                                  
 activation_522 (Activation  (None, 12, 12, 192)          0         ['batch_normalization_522[0][0
 )                                                                  ]']                           
                                                                                                  
 activation_525 (Activation  (None, 12, 12, 192)          0         ['batch_normalization_525[0][0
 )                                                                  ]']                           
                                                                                                  
 block17_11_mixed (Concaten  (None, 12, 12, 384)          0         ['activation_522[0][0]',      
 ate)                                                                'activation_525[0][0]']      
                                                                                                  
 block17_11_conv (Conv2D)    (None, 12, 12, 1088)         418880    ['block17_11_mixed[0][0]']    
                                                                                                  
 custom_scale_layer_100 (Cu  (None, 12, 12, 1088)         0         ['block17_10_ac[0][0]',       
 stomScaleLayer)                                                     'block17_11_conv[0][0]']     
                                                                                                  
 block17_11_ac (Activation)  (None, 12, 12, 1088)         0         ['custom_scale_layer_100[0][0]
                                                                    ']                            
                                                                                                  
 conv2d_527 (Conv2D)         (None, 12, 12, 128)          139264    ['block17_11_ac[0][0]']       
                                                                                                  
 batch_normalization_527 (B  (None, 12, 12, 128)          384       ['conv2d_527[0][0]']          
 atchNormalization)                                                                               
                                                                                                  
 activation_527 (Activation  (None, 12, 12, 128)          0         ['batch_normalization_527[0][0
 )                                                                  ]']                           
                                                                                                  
 conv2d_528 (Conv2D)         (None, 12, 12, 160)          143360    ['activation_527[0][0]']      
                                                                                                  
 batch_normalization_528 (B  (None, 12, 12, 160)          480       ['conv2d_528[0][0]']          
 atchNormalization)                                                                               
                                                                                                  
 activation_528 (Activation  (None, 12, 12, 160)          0         ['batch_normalization_528[0][0
 )                                                                  ]']                           
                                                                                                  
 conv2d_526 (Conv2D)         (None, 12, 12, 192)          208896    ['block17_11_ac[0][0]']       
                                                                                                  
 conv2d_529 (Conv2D)         (None, 12, 12, 192)          215040    ['activation_528[0][0]']      
                                                                                                  
 batch_normalization_526 (B  (None, 12, 12, 192)          576       ['conv2d_526[0][0]']          
 atchNormalization)                                                                               
                                                                                                  
 batch_normalization_529 (B  (None, 12, 12, 192)          576       ['conv2d_529[0][0]']          
 atchNormalization)                                                                               
                                                                                                  
 activation_526 (Activation  (None, 12, 12, 192)          0         ['batch_normalization_526[0][0
 )                                                                  ]']                           
                                                                                                  
 activation_529 (Activation  (None, 12, 12, 192)          0         ['batch_normalization_529[0][0
 )                                                                  ]']                           
                                                                                                  
 block17_12_mixed (Concaten  (None, 12, 12, 384)          0         ['activation_526[0][0]',      
 ate)                                                                'activation_529[0][0]']      
                                                                                                  
 block17_12_conv (Conv2D)    (None, 12, 12, 1088)         418880    ['block17_12_mixed[0][0]']    
                                                                                                  
 custom_scale_layer_101 (Cu  (None, 12, 12, 1088)         0         ['block17_11_ac[0][0]',       
 stomScaleLayer)                                                     'block17_12_conv[0][0]']     
                                                                                                  
 block17_12_ac (Activation)  (None, 12, 12, 1088)         0         ['custom_scale_layer_101[0][0]
                                                                    ']                            
                                                                                                  
 conv2d_531 (Conv2D)         (None, 12, 12, 128)          139264    ['block17_12_ac[0][0]']       
                                                                                                  
 batch_normalization_531 (B  (None, 12, 12, 128)          384       ['conv2d_531[0][0]']          
 atchNormalization)                                                                               
                                                                                                  
 activation_531 (Activation  (None, 12, 12, 128)          0         ['batch_normalization_531[0][0
 )                                                                  ]']                           
                                                                                                  
 conv2d_532 (Conv2D)         (None, 12, 12, 160)          143360    ['activation_531[0][0]']      
                                                                                                  
 batch_normalization_532 (B  (None, 12, 12, 160)          480       ['conv2d_532[0][0]']          
 atchNormalization)                                                                               
                                                                                                  
 activation_532 (Activation  (None, 12, 12, 160)          0         ['batch_normalization_532[0][0
 )                                                                  ]']                           
                                                                                                  
 conv2d_530 (Conv2D)         (None, 12, 12, 192)          208896    ['block17_12_ac[0][0]']       
                                                                                                  
 conv2d_533 (Conv2D)         (None, 12, 12, 192)          215040    ['activation_532[0][0]']      
                                                                                                  
 batch_normalization_530 (B  (None, 12, 12, 192)          576       ['conv2d_530[0][0]']          
 atchNormalization)                                                                               
                                                                                                  
 batch_normalization_533 (B  (None, 12, 12, 192)          576       ['conv2d_533[0][0]']          
 atchNormalization)                                                                               
                                                                                                  
 activation_530 (Activation  (None, 12, 12, 192)          0         ['batch_normalization_530[0][0
 )                                                                  ]']                           
                                                                                                  
 activation_533 (Activation  (None, 12, 12, 192)          0         ['batch_normalization_533[0][0
 )                                                                  ]']                           
                                                                                                  
 block17_13_mixed (Concaten  (None, 12, 12, 384)          0         ['activation_530[0][0]',      
 ate)                                                                'activation_533[0][0]']      
                                                                                                  
 block17_13_conv (Conv2D)    (None, 12, 12, 1088)         418880    ['block17_13_mixed[0][0]']    
                                                                                                  
 custom_scale_layer_102 (Cu  (None, 12, 12, 1088)         0         ['block17_12_ac[0][0]',       
 stomScaleLayer)                                                     'block17_13_conv[0][0]']     
                                                                                                  
 block17_13_ac (Activation)  (None, 12, 12, 1088)         0         ['custom_scale_layer_102[0][0]
                                                                    ']                            
                                                                                                  
 conv2d_535 (Conv2D)         (None, 12, 12, 128)          139264    ['block17_13_ac[0][0]']       
                                                                                                  
 batch_normalization_535 (B  (None, 12, 12, 128)          384       ['conv2d_535[0][0]']          
 atchNormalization)                                                                               
                                                                                                  
 activation_535 (Activation  (None, 12, 12, 128)          0         ['batch_normalization_535[0][0
 )                                                                  ]']                           
                                                                                                  
 conv2d_536 (Conv2D)         (None, 12, 12, 160)          143360    ['activation_535[0][0]']      
                                                                                                  
 batch_normalization_536 (B  (None, 12, 12, 160)          480       ['conv2d_536[0][0]']          
 atchNormalization)                                                                               
                                                                                                  
 activation_536 (Activation  (None, 12, 12, 160)          0         ['batch_normalization_536[0][0
 )                                                                  ]']                           
                                                                                                  
 conv2d_534 (Conv2D)         (None, 12, 12, 192)          208896    ['block17_13_ac[0][0]']       
                                                                                                  
 conv2d_537 (Conv2D)         (None, 12, 12, 192)          215040    ['activation_536[0][0]']      
                                                                                                  
 batch_normalization_534 (B  (None, 12, 12, 192)          576       ['conv2d_534[0][0]']          
 atchNormalization)                                                                               
                                                                                                  
 batch_normalization_537 (B  (None, 12, 12, 192)          576       ['conv2d_537[0][0]']          
 atchNormalization)                                                                               
                                                                                                  
 activation_534 (Activation  (None, 12, 12, 192)          0         ['batch_normalization_534[0][0
 )                                                                  ]']                           
                                                                                                  
 activation_537 (Activation  (None, 12, 12, 192)          0         ['batch_normalization_537[0][0
 )                                                                  ]']                           
                                                                                                  
 block17_14_mixed (Concaten  (None, 12, 12, 384)          0         ['activation_534[0][0]',      
 ate)                                                                'activation_537[0][0]']      
                                                                                                  
 block17_14_conv (Conv2D)    (None, 12, 12, 1088)         418880    ['block17_14_mixed[0][0]']    
                                                                                                  
 custom_scale_layer_103 (Cu  (None, 12, 12, 1088)         0         ['block17_13_ac[0][0]',       
 stomScaleLayer)                                                     'block17_14_conv[0][0]']     
                                                                                                  
 block17_14_ac (Activation)  (None, 12, 12, 1088)         0         ['custom_scale_layer_103[0][0]
                                                                    ']                            
                                                                                                  
 conv2d_539 (Conv2D)         (None, 12, 12, 128)          139264    ['block17_14_ac[0][0]']       
                                                                                                  
 batch_normalization_539 (B  (None, 12, 12, 128)          384       ['conv2d_539[0][0]']          
 atchNormalization)                                                                               
                                                                                                  
 activation_539 (Activation  (None, 12, 12, 128)          0         ['batch_normalization_539[0][0
 )                                                                  ]']                           
                                                                                                  
 conv2d_540 (Conv2D)         (None, 12, 12, 160)          143360    ['activation_539[0][0]']      
                                                                                                  
 batch_normalization_540 (B  (None, 12, 12, 160)          480       ['conv2d_540[0][0]']          
 atchNormalization)                                                                               
                                                                                                  
 activation_540 (Activation  (None, 12, 12, 160)          0         ['batch_normalization_540[0][0
 )                                                                  ]']                           
                                                                                                  
 conv2d_538 (Conv2D)         (None, 12, 12, 192)          208896    ['block17_14_ac[0][0]']       
                                                                                                  
 conv2d_541 (Conv2D)         (None, 12, 12, 192)          215040    ['activation_540[0][0]']      
                                                                                                  
 batch_normalization_538 (B  (None, 12, 12, 192)          576       ['conv2d_538[0][0]']          
 atchNormalization)                                                                               
                                                                                                  
 batch_normalization_541 (B  (None, 12, 12, 192)          576       ['conv2d_541[0][0]']          
 atchNormalization)                                                                               
                                                                                                  
 activation_538 (Activation  (None, 12, 12, 192)          0         ['batch_normalization_538[0][0
 )                                                                  ]']                           
                                                                                                  
 activation_541 (Activation  (None, 12, 12, 192)          0         ['batch_normalization_541[0][0
 )                                                                  ]']                           
                                                                                                  
 block17_15_mixed (Concaten  (None, 12, 12, 384)          0         ['activation_538[0][0]',      
 ate)                                                                'activation_541[0][0]']      
                                                                                                  
 block17_15_conv (Conv2D)    (None, 12, 12, 1088)         418880    ['block17_15_mixed[0][0]']    
                                                                                                  
 custom_scale_layer_104 (Cu  (None, 12, 12, 1088)         0         ['block17_14_ac[0][0]',       
 stomScaleLayer)                                                     'block17_15_conv[0][0]']     
                                                                                                  
 block17_15_ac (Activation)  (None, 12, 12, 1088)         0         ['custom_scale_layer_104[0][0]
                                                                    ']                            
                                                                                                  
 conv2d_543 (Conv2D)         (None, 12, 12, 128)          139264    ['block17_15_ac[0][0]']       
                                                                                                  
 batch_normalization_543 (B  (None, 12, 12, 128)          384       ['conv2d_543[0][0]']          
 atchNormalization)                                                                               
                                                                                                  
 activation_543 (Activation  (None, 12, 12, 128)          0         ['batch_normalization_543[0][0
 )                                                                  ]']                           
                                                                                                  
 conv2d_544 (Conv2D)         (None, 12, 12, 160)          143360    ['activation_543[0][0]']      
                                                                                                  
 batch_normalization_544 (B  (None, 12, 12, 160)          480       ['conv2d_544[0][0]']          
 atchNormalization)                                                                               
                                                                                                  
 activation_544 (Activation  (None, 12, 12, 160)          0         ['batch_normalization_544[0][0
 )                                                                  ]']                           
                                                                                                  
 conv2d_542 (Conv2D)         (None, 12, 12, 192)          208896    ['block17_15_ac[0][0]']       
                                                                                                  
 conv2d_545 (Conv2D)         (None, 12, 12, 192)          215040    ['activation_544[0][0]']      
                                                                                                  
 batch_normalization_542 (B  (None, 12, 12, 192)          576       ['conv2d_542[0][0]']          
 atchNormalization)                                                                               
                                                                                                  
 batch_normalization_545 (B  (None, 12, 12, 192)          576       ['conv2d_545[0][0]']          
 atchNormalization)                                                                               
                                                                                                  
 activation_542 (Activation  (None, 12, 12, 192)          0         ['batch_normalization_542[0][0
 )                                                                  ]']                           
                                                                                                  
 activation_545 (Activation  (None, 12, 12, 192)          0         ['batch_normalization_545[0][0
 )                                                                  ]']                           
                                                                                                  
 block17_16_mixed (Concaten  (None, 12, 12, 384)          0         ['activation_542[0][0]',      
 ate)                                                                'activation_545[0][0]']      
                                                                                                  
 block17_16_conv (Conv2D)    (None, 12, 12, 1088)         418880    ['block17_16_mixed[0][0]']    
                                                                                                  
 custom_scale_layer_105 (Cu  (None, 12, 12, 1088)         0         ['block17_15_ac[0][0]',       
 stomScaleLayer)                                                     'block17_16_conv[0][0]']     
                                                                                                  
 block17_16_ac (Activation)  (None, 12, 12, 1088)         0         ['custom_scale_layer_105[0][0]
                                                                    ']                            
                                                                                                  
 conv2d_547 (Conv2D)         (None, 12, 12, 128)          139264    ['block17_16_ac[0][0]']       
                                                                                                  
 batch_normalization_547 (B  (None, 12, 12, 128)          384       ['conv2d_547[0][0]']          
 atchNormalization)                                                                               
                                                                                                  
 activation_547 (Activation  (None, 12, 12, 128)          0         ['batch_normalization_547[0][0
 )                                                                  ]']                           
                                                                                                  
 conv2d_548 (Conv2D)         (None, 12, 12, 160)          143360    ['activation_547[0][0]']      
                                                                                                  
 batch_normalization_548 (B  (None, 12, 12, 160)          480       ['conv2d_548[0][0]']          
 atchNormalization)                                                                               
                                                                                                  
 activation_548 (Activation  (None, 12, 12, 160)          0         ['batch_normalization_548[0][0
 )                                                                  ]']                           
                                                                                                  
 conv2d_546 (Conv2D)         (None, 12, 12, 192)          208896    ['block17_16_ac[0][0]']       
                                                                                                  
 conv2d_549 (Conv2D)         (None, 12, 12, 192)          215040    ['activation_548[0][0]']      
                                                                                                  
 batch_normalization_546 (B  (None, 12, 12, 192)          576       ['conv2d_546[0][0]']          
 atchNormalization)                                                                               
                                                                                                  
 batch_normalization_549 (B  (None, 12, 12, 192)          576       ['conv2d_549[0][0]']          
 atchNormalization)                                                                               
                                                                                                  
 activation_546 (Activation  (None, 12, 12, 192)          0         ['batch_normalization_546[0][0
 )                                                                  ]']                           
                                                                                                  
 activation_549 (Activation  (None, 12, 12, 192)          0         ['batch_normalization_549[0][0
 )                                                                  ]']                           
                                                                                                  
 block17_17_mixed (Concaten  (None, 12, 12, 384)          0         ['activation_546[0][0]',      
 ate)                                                                'activation_549[0][0]']      
                                                                                                  
 block17_17_conv (Conv2D)    (None, 12, 12, 1088)         418880    ['block17_17_mixed[0][0]']    
                                                                                                  
 custom_scale_layer_106 (Cu  (None, 12, 12, 1088)         0         ['block17_16_ac[0][0]',       
 stomScaleLayer)                                                     'block17_17_conv[0][0]']     
                                                                                                  
 block17_17_ac (Activation)  (None, 12, 12, 1088)         0         ['custom_scale_layer_106[0][0]
                                                                    ']                            
                                                                                                  
 conv2d_551 (Conv2D)         (None, 12, 12, 128)          139264    ['block17_17_ac[0][0]']       
                                                                                                  
 batch_normalization_551 (B  (None, 12, 12, 128)          384       ['conv2d_551[0][0]']          
 atchNormalization)                                                                               
                                                                                                  
 activation_551 (Activation  (None, 12, 12, 128)          0         ['batch_normalization_551[0][0
 )                                                                  ]']                           
                                                                                                  
 conv2d_552 (Conv2D)         (None, 12, 12, 160)          143360    ['activation_551[0][0]']      
                                                                                                  
 batch_normalization_552 (B  (None, 12, 12, 160)          480       ['conv2d_552[0][0]']          
 atchNormalization)                                                                               
                                                                                                  
 activation_552 (Activation  (None, 12, 12, 160)          0         ['batch_normalization_552[0][0
 )                                                                  ]']                           
                                                                                                  
 conv2d_550 (Conv2D)         (None, 12, 12, 192)          208896    ['block17_17_ac[0][0]']       
                                                                                                  
 conv2d_553 (Conv2D)         (None, 12, 12, 192)          215040    ['activation_552[0][0]']      
                                                                                                  
 batch_normalization_550 (B  (None, 12, 12, 192)          576       ['conv2d_550[0][0]']          
 atchNormalization)                                                                               
                                                                                                  
 batch_normalization_553 (B  (None, 12, 12, 192)          576       ['conv2d_553[0][0]']          
 atchNormalization)                                                                               
                                                                                                  
 activation_550 (Activation  (None, 12, 12, 192)          0         ['batch_normalization_550[0][0
 )                                                                  ]']                           
                                                                                                  
…
                                                                                                  
 conv2d_562 (Conv2D)         (None, 12, 12, 256)          278528    ['block17_20_ac[0][0]']       
                                                                                                  
 conv2d_564 (Conv2D)         (None, 12, 12, 256)          278528    ['block17_20_ac[0][0]']       
                                                                                                  
 conv2d_567 (Conv2D)         (None, 12, 12, 288)          663552    ['activation_566[0][0]']      
                                                                                                  
 batch_normalization_562 (B  (None, 12, 12, 256)          768       ['conv2d_562[0][0]']          
 atchNormalization)                                                                               
                                                                                                  
 batch_normalization_564 (B  (None, 12, 12, 256)          768       ['conv2d_564[0][0]']          
 atchNormalization)                                                                               
                                                                                                  
 batch_normalization_567 (B  (None, 12, 12, 288)          864       ['conv2d_567[0][0]']          
 atchNormalization)                                                                               
                                                                                                  
 activation_562 (Activation  (None, 12, 12, 256)          0         ['batch_normalization_562[0][0
 )                                                                  ]']                           
                                                                                                  
 activation_564 (Activation  (None, 12, 12, 256)          0         ['batch_normalization_564[0][0
 )                                                                  ]']                           
                                                                                                  
 activation_567 (Activation  (None, 12, 12, 288)          0         ['batch_normalization_567[0][0
 )                                                                  ]']                           
                                                                                                  
 conv2d_563 (Conv2D)         (None, 5, 5, 384)            884736    ['activation_562[0][0]']      
                                                                                                  
 conv2d_565 (Conv2D)         (None, 5, 5, 288)            663552    ['activation_564[0][0]']      
                                                                                                  
 conv2d_568 (Conv2D)         (None, 5, 5, 320)            829440    ['activation_567[0][0]']      
                                                                                                  
 batch_normalization_563 (B  (None, 5, 5, 384)            1152      ['conv2d_563[0][0]']          
 atchNormalization)                                                                               
                                                                                                  
 batch_normalization_565 (B  (None, 5, 5, 288)            864       ['conv2d_565[0][0]']          
 atchNormalization)                                                                               
                                                                                                  
 batch_normalization_568 (B  (None, 5, 5, 320)            960       ['conv2d_568[0][0]']          
 atchNormalization)                                                                               
                                                                                                  
 activation_563 (Activation  (None, 5, 5, 384)            0         ['batch_normalization_563[0][0
 )                                                                  ]']                           
                                                                                                  
 activation_565 (Activation  (None, 5, 5, 288)            0         ['batch_normalization_565[0][0
 )                                                                  ]']                           
                                                                                                  
 activation_568 (Activation  (None, 5, 5, 320)            0         ['batch_normalization_568[0][0
 )                                                                  ]']                           
                                                                                                  
 max_pooling2d_11 (MaxPooli  (None, 5, 5, 1088)           0         ['block17_20_ac[0][0]']       
 ng2D)                                                                                            
                                                                                                  
 mixed_7a (Concatenate)      (None, 5, 5, 2080)           0         ['activation_563[0][0]',      
                                                                     'activation_565[0][0]',      
                                                                     'activation_568[0][0]',      
                                                                     'max_pooling2d_11[0][0]']    
                                                                                                  
 conv2d_570 (Conv2D)         (None, 5, 5, 192)            399360    ['mixed_7a[0][0]']            
                                                                                                  
 batch_normalization_570 (B  (None, 5, 5, 192)            576       ['conv2d_570[0][0]']          
 atchNormalization)                                                                               
                                                                                                  
 activation_570 (Activation  (None, 5, 5, 192)            0         ['batch_normalization_570[0][0
 )                                                                  ]']                           
                                                                                                  
 conv2d_571 (Conv2D)         (None, 5, 5, 224)            129024    ['activation_570[0][0]']      
                                                                                                  
 batch_normalization_571 (B  (None, 5, 5, 224)            672       ['conv2d_571[0][0]']          
 atchNormalization)                                                                               
                                                                                                  
 activation_571 (Activation  (None, 5, 5, 224)            0         ['batch_normalization_571[0][0
 )                                                                  ]']                           
                                                                                                  
 conv2d_569 (Conv2D)         (None, 5, 5, 192)            399360    ['mixed_7a[0][0]']            
                                                                                                  
 conv2d_572 (Conv2D)         (None, 5, 5, 256)            172032    ['activation_571[0][0]']      
                                                                                                  
 batch_normalization_569 (B  (None, 5, 5, 192)            576       ['conv2d_569[0][0]']          
 atchNormalization)                                                                               
                                                                                                  
 batch_normalization_572 (B  (None, 5, 5, 256)            768       ['conv2d_572[0][0]']          
 atchNormalization)                                                                               
                                                                                                  
 activation_569 (Activation  (None, 5, 5, 192)            0         ['batch_normalization_569[0][0
 )                                                                  ]']                           
                                                                                                  
 activation_572 (Activation  (None, 5, 5, 256)            0         ['batch_normalization_572[0][0
 )                                                                  ]']                           
                                                                                                  
 block8_1_mixed (Concatenat  (None, 5, 5, 448)            0         ['activation_569[0][0]',      
 e)                                                                  'activation_572[0][0]']      
                                                                                                  
 block8_1_conv (Conv2D)      (None, 5, 5, 2080)           933920    ['block8_1_mixed[0][0]']      
                                                                                                  
 custom_scale_layer_110 (Cu  (None, 5, 5, 2080)           0         ['mixed_7a[0][0]',            
 stomScaleLayer)                                                     'block8_1_conv[0][0]']       
                                                                                                  
 block8_1_ac (Activation)    (None, 5, 5, 2080)           0         ['custom_scale_layer_110[0][0]
                                                                    ']                            
                                                                                                  
 conv2d_574 (Conv2D)         (None, 5, 5, 192)            399360    ['block8_1_ac[0][0]']         
                                                                                                  
 batch_normalization_574 (B  (None, 5, 5, 192)            576       ['conv2d_574[0][0]']          
 atchNormalization)                                                                               
                                                                                                  
 activation_574 (Activation  (None, 5, 5, 192)            0         ['batch_normalization_574[0][0
 )                                                                  ]']                           
                                                                                                  
 conv2d_575 (Conv2D)         (None, 5, 5, 224)            129024    ['activation_574[0][0]']      
                                                                                                  
 batch_normalization_575 (B  (None, 5, 5, 224)            672       ['conv2d_575[0][0]']          
 atchNormalization)                                                                               
                                                                                                  
 activation_575 (Activation  (None, 5, 5, 224)            0         ['batch_normalization_575[0][0
 )                                                                  ]']                           
                                                                                                  
 conv2d_573 (Conv2D)         (None, 5, 5, 192)            399360    ['block8_1_ac[0][0]']         
                                                                                                  
 conv2d_576 (Conv2D)         (None, 5, 5, 256)            172032    ['activation_575[0][0]']      
                                                                                                  
 batch_normalization_573 (B  (None, 5, 5, 192)            576       ['conv2d_573[0][0]']          
 atchNormalization)                                                                               
                                                                                                  
 batch_normalization_576 (B  (None, 5, 5, 256)            768       ['conv2d_576[0][0]']          
 atchNormalization)                                                                               
                                                                                                  
 activation_573 (Activation  (None, 5, 5, 192)            0         ['batch_normalization_573[0][0
 )                                                                  ]']                           
                                                                                                  
 activation_576 (Activation  (None, 5, 5, 256)            0         ['batch_normalization_576[0][0
 )                                                                  ]']                           
                                                                                                  
 block8_2_mixed (Concatenat  (None, 5, 5, 448)            0         ['activation_573[0][0]',      
 e)                                                                  'activation_576[0][0]']      
                                                                                                  
 block8_2_conv (Conv2D)      (None, 5, 5, 2080)           933920    ['block8_2_mixed[0][0]']      
                                                                                                  
 custom_scale_layer_111 (Cu  (None, 5, 5, 2080)           0         ['block8_1_ac[0][0]',         
 stomScaleLayer)                                                     'block8_2_conv[0][0]']       
                                                                                                  
 block8_2_ac (Activation)    (None, 5, 5, 2080)           0         ['custom_scale_layer_111[0][0]
                                                                    ']                            
                                                                                                  
 conv2d_578 (Conv2D)         (None, 5, 5, 192)            399360    ['block8_2_ac[0][0]']         
                                                                                                  
 batch_normalization_578 (B  (None, 5, 5, 192)            576       ['conv2d_578[0][0]']          
 atchNormalization)                                                                               
                                                                                                  
 activation_578 (Activation  (None, 5, 5, 192)            0         ['batch_normalization_578[0][0
 )                                                                  ]']                           
                                                                                                  
 conv2d_579 (Conv2D)         (None, 5, 5, 224)            129024    ['activation_578[0][0]']      
                                                                                                  
 batch_normalization_579 (B  (None, 5, 5, 224)            672       ['conv2d_579[0][0]']          
 atchNormalization)                                                                               
                                                                                                  
 activation_579 (Activation  (None, 5, 5, 224)            0         ['batch_normalization_579[0][0
 )                                                                  ]']                           
                                                                                                  
 conv2d_577 (Conv2D)         (None, 5, 5, 192)            399360    ['block8_2_ac[0][0]']         
                                                                                                  
 conv2d_580 (Conv2D)         (None, 5, 5, 256)            172032    ['activation_579[0][0]']      
                                                                                                  
 batch_normalization_577 (B  (None, 5, 5, 192)            576       ['conv2d_577[0][0]']          
 atchNormalization)                                                                               
                                                                                                  
 batch_normalization_580 (B  (None, 5, 5, 256)            768       ['conv2d_580[0][0]']          
 atchNormalization)                                                                               
                                                                                                  
 activation_577 (Activation  (None, 5, 5, 192)            0         ['batch_normalization_577[0][0
 )                                                                  ]']                           
                                                                                                  
 activation_580 (Activation  (None, 5, 5, 256)            0         ['batch_normalization_580[0][0
 )                                                                  ]']                           
                                                                                                  
 block8_3_mixed (Concatenat  (None, 5, 5, 448)            0         ['activation_577[0][0]',      
 e)                                                                  'activation_580[0][0]']      
                                                                                                  
 block8_3_conv (Conv2D)      (None, 5, 5, 2080)           933920    ['block8_3_mixed[0][0]']      
                                                                                                  
 custom_scale_layer_112 (Cu  (None, 5, 5, 2080)           0         ['block8_2_ac[0][0]',         
 stomScaleLayer)                                                     'block8_3_conv[0][0]']       
                                                                                                  
 block8_3_ac (Activation)    (None, 5, 5, 2080)           0         ['custom_scale_layer_112[0][0]
                                                                    ']                            
                                                                                                  
 conv2d_582 (Conv2D)         (None, 5, 5, 192)            399360    ['block8_3_ac[0][0]']         
                                                                                                  
 batch_normalization_582 (B  (None, 5, 5, 192)            576       ['conv2d_582[0][0]']          
 atchNormalization)                                                                               
                                                                                                  
 activation_582 (Activation  (None, 5, 5, 192)            0         ['batch_normalization_582[0][0
 )                                                                  ]']                           
                                                                                                  
 conv2d_583 (Conv2D)         (None, 5, 5, 224)            129024    ['activation_582[0][0]']      
                                                                                                  
 batch_normalization_583 (B  (None, 5, 5, 224)            672       ['conv2d_583[0][0]']          
 atchNormalization)                                                                               
                                                                                                  
 activation_583 (Activation  (None, 5, 5, 224)            0         ['batch_normalization_583[0][0
 )                                                                  ]']                           
                                                                                                  
 conv2d_581 (Conv2D)         (None, 5, 5, 192)            399360    ['block8_3_ac[0][0]']         
                                                                                                  
 conv2d_584 (Conv2D)         (None, 5, 5, 256)            172032    ['activation_583[0][0]']      
                                                                                                  
 batch_normalization_581 (B  (None, 5, 5, 192)            576       ['conv2d_581[0][0]']          
 atchNormalization)                                                                               
                                                                                                  
 batch_normalization_584 (B  (None, 5, 5, 256)            768       ['conv2d_584[0][0]']          
 atchNormalization)                                                                               
                                                                                                  
 activation_581 (Activation  (None, 5, 5, 192)            0         ['batch_normalization_581[0][0
 )                                                                  ]']                           
                                                                                                  
 activation_584 (Activation  (None, 5, 5, 256)            0         ['batch_normalization_584[0][0
 )                                                                  ]']                           
                                                                                                  
 block8_4_mixed (Concatenat  (None, 5, 5, 448)            0         ['activation_581[0][0]',      
 e)                                                                  'activation_584[0][0]']      
                                                                                                  
 block8_4_conv (Conv2D)      (None, 5, 5, 2080)           933920    ['block8_4_mixed[0][0]']      
                                                                                                  
 custom_scale_layer_113 (Cu  (None, 5, 5, 2080)           0         ['block8_3_ac[0][0]',         
 stomScaleLayer)                                                     'block8_4_conv[0][0]']       
                                                                                                  
 block8_4_ac (Activation)    (None, 5, 5, 2080)           0         ['custom_scale_layer_113[0][0]
                                                                    ']                            
                                                                                                  
 conv2d_586 (Conv2D)         (None, 5, 5, 192)            399360    ['block8_4_ac[0][0]']         
                                                                                                  
 batch_normalization_586 (B  (None, 5, 5, 192)            576       ['conv2d_586[0][0]']          
 atchNormalization)                                                                               
                                                                                                  
 activation_586 (Activation  (None, 5, 5, 192)            0         ['batch_normalization_586[0][0
 )                                                                  ]']                           
                                                                                                  
 conv2d_587 (Conv2D)         (None, 5, 5, 224)            129024    ['activation_586[0][0]']      
                                                                                                  
 batch_normalization_587 (B  (None, 5, 5, 224)            672       ['conv2d_587[0][0]']          
 atchNormalization)                                                                               
                                                                                                  
 activation_587 (Activation  (None, 5, 5, 224)            0         ['batch_normalization_587[0][0
 )                                                                  ]']                           
                                                                                                  
 conv2d_585 (Conv2D)         (None, 5, 5, 192)            399360    ['block8_4_ac[0][0]']         
                                                                                                  
 conv2d_588 (Conv2D)         (None, 5, 5, 256)            172032    ['activation_587[0][0]']      
                                                                                                  
 batch_normalization_585 (B  (None, 5, 5, 192)            576       ['conv2d_585[0][0]']          
 atchNormalization)                                                                               
                                                                                                  
 batch_normalization_588 (B  (None, 5, 5, 256)            768       ['conv2d_588[0][0]']          
 atchNormalization)                                                                               
                                                                                                  
 activation_585 (Activation  (None, 5, 5, 192)            0         ['batch_normalization_585[0][0
 )                                                                  ]']                           
                                                                                                  
 activation_588 (Activation  (None, 5, 5, 256)            0         ['batch_normalization_588[0][0
 )                                                                  ]']                           
                                                                                                  
 block8_5_mixed (Concatenat  (None, 5, 5, 448)            0         ['activation_585[0][0]',      
 e)                                                                  'activation_588[0][0]']      
                                                                                                  
 block8_5_conv (Conv2D)      (None, 5, 5, 2080)           933920    ['block8_5_mixed[0][0]']      
                                                                                                  
 custom_scale_layer_114 (Cu  (None, 5, 5, 2080)           0         ['block8_4_ac[0][0]',         
 stomScaleLayer)                                                     'block8_5_conv[0][0]']       
                                                                                                  
 block8_5_ac (Activation)    (None, 5, 5, 2080)           0         ['custom_scale_layer_114[0][0]
                                                                    ']                            
                                                                                                  
 conv2d_590 (Conv2D)         (None, 5, 5, 192)            399360    ['block8_5_ac[0][0]']         
                                                                                                  
 batch_normalization_590 (B  (None, 5, 5, 192)            576       ['conv2d_590[0][0]']          
 atchNormalization)                                                                               
                                                                                                  
 activation_590 (Activation  (None, 5, 5, 192)            0         ['batch_normalization_590[0][0
 )                                                                  ]']                           
                                                                                                  
 conv2d_591 (Conv2D)         (None, 5, 5, 224)            129024    ['activation_590[0][0]']      
                                                                                                  
 batch_normalization_591 (B  (None, 5, 5, 224)            672       ['conv2d_591[0][0]']          
 atchNormalization)                                                                               
                                                                                                  
 activation_591 (Activation  (None, 5, 5, 224)            0         ['batch_normalization_591[0][0
 )                                                                  ]']                           
                                                                                                  
 conv2d_589 (Conv2D)         (None, 5, 5, 192)            399360    ['block8_5_ac[0][0]']         
                                                                                                  
 conv2d_592 (Conv2D)         (None, 5, 5, 256)            172032    ['activation_591[0][0]']      
                                                                                                  
 batch_normalization_589 (B  (None, 5, 5, 192)            576       ['conv2d_589[0][0]']          
 atchNormalization)                                                                               
                                                                                                  
 batch_normalization_592 (B  (None, 5, 5, 256)            768       ['conv2d_592[0][0]']          
 atchNormalization)                                                                               
                                                                                                  
 activation_589 (Activation  (None, 5, 5, 192)            0         ['batch_normalization_589[0][0
 )                                                                  ]']                           
                                                                                                  
 activation_592 (Activation  (None, 5, 5, 256)            0         ['batch_normalization_592[0][0
 )                                                                  ]']                           
                                                                                                  
 block8_6_mixed (Concatenat  (None, 5, 5, 448)            0         ['activation_589[0][0]',      
 e)                                                                  'activation_592[0][0]']      
                                                                                                  
 block8_6_conv (Conv2D)      (None, 5, 5, 2080)           933920    ['block8_6_mixed[0][0]']      
                                                                                                  
 custom_scale_layer_115 (Cu  (None, 5, 5, 2080)           0         ['block8_5_ac[0][0]',         
 stomScaleLayer)                                                     'block8_6_conv[0][0]']       
                                                                                                  
 block8_6_ac (Activation)    (None, 5, 5, 2080)           0         ['custom_scale_layer_115[0][0]
                                                                    ']                            
                                                                                                  
 conv2d_594 (Conv2D)         (None, 5, 5, 192)            399360    ['block8_6_ac[0][0]']         
                                                                                                  
 batch_normalization_594 (B  (None, 5, 5, 192)            576       ['conv2d_594[0][0]']          
 atchNormalization)                                                                               
                                                                                                  
 activation_594 (Activation  (None, 5, 5, 192)            0         ['batch_normalization_594[0][0
 )                                                                  ]']                           
                                                                                                  
 conv2d_595 (Conv2D)         (None, 5, 5, 224)            129024    ['activation_594[0][0]']      
                                                                                                  
 batch_normalization_595 (B  (None, 5, 5, 224)            672       ['conv2d_595[0][0]']          
 atchNormalization)                                                                               
                                                                                                  
 activation_595 (Activation  (None, 5, 5, 224)            0         ['batch_normalization_595[0][0
 )                                                                  ]']                           
                                                                                                  
 conv2d_593 (Conv2D)         (None, 5, 5, 192)            399360    ['block8_6_ac[0][0]']         
                                                                                                  
 conv2d_596 (Conv2D)         (None, 5, 5, 256)            172032    ['activation_595[0][0]']      
                                                                                                  
 batch_normalization_593 (B  (None, 5, 5, 192)            576       ['conv2d_593[0][0]']          
 atchNormalization)                                                                               
                                                                                                  
 batch_normalization_596 (B  (None, 5, 5, 256)            768       ['conv2d_596[0][0]']          
 atchNormalization)                                                                               
                                                                                                  
 activation_593 (Activation  (None, 5, 5, 192)            0         ['batch_normalization_593[0][0
 )                                                                  ]']                           
                                                                                                  
 activation_596 (Activation  (None, 5, 5, 256)            0         ['batch_normalization_596[0][0
 )                                                                  ]']                           
                                                                                                  
 block8_7_mixed (Concatenat  (None, 5, 5, 448)            0         ['activation_593[0][0]',      
 e)                                                                  'activation_596[0][0]']      
                                                                                                  
 block8_7_conv (Conv2D)      (None, 5, 5, 2080)           933920    ['block8_7_mixed[0][0]']      
                                                                                                  
 custom_scale_layer_116 (Cu  (None, 5, 5, 2080)           0         ['block8_6_ac[0][0]',         
 stomScaleLayer)                                                     'block8_7_conv[0][0]']       
                                                                                                  
 block8_7_ac (Activation)    (None, 5, 5, 2080)           0         ['custom_scale_layer_116[0][0]
                                                                    ']                            
                                                                                                  
 conv2d_598 (Conv2D)         (None, 5, 5, 192)            399360    ['block8_7_ac[0][0]']         
                                                                                                  
 batch_normalization_598 (B  (None, 5, 5, 192)            576       ['conv2d_598[0][0]']          
 atchNormalization)                                                                               
                                                                                                  
 activation_598 (Activation  (None, 5, 5, 192)            0         ['batch_normalization_598[0][0
 )                                                                  ]']                           
                                                                                                  
 conv2d_599 (Conv2D)         (None, 5, 5, 224)            129024    ['activation_598[0][0]']      
                                                                                                  
 batch_normalization_599 (B  (None, 5, 5, 224)            672       ['conv2d_599[0][0]']          
 atchNormalization)                                                                               
                                                                                                  
 activation_599 (Activation  (None, 5, 5, 224)            0         ['batch_normalization_599[0][0
 )                                                                  ]']                           
                                                                                                  
 conv2d_597 (Conv2D)         (None, 5, 5, 192)            399360    ['block8_7_ac[0][0]']         
                                                                                                  
 conv2d_600 (Conv2D)         (None, 5, 5, 256)            172032    ['activation_599[0][0]']      
                                                                                                  
 batch_normalization_597 (B  (None, 5, 5, 192)            576       ['conv2d_597[0][0]']          
 atchNormalization)                                                                               
                                                                                                  
 batch_normalization_600 (B  (None, 5, 5, 256)            768       ['conv2d_600[0][0]']          
 atchNormalization)                                                                               
                                                                                                  
 activation_597 (Activation  (None, 5, 5, 192)            0         ['batch_normalization_597[0][0
 )                                                                  ]']                           
                                                                                                  
 activation_600 (Activation  (None, 5, 5, 256)            0         ['batch_normalization_600[0][0
 )                                                                  ]']                           
                                                                                                  
 block8_8_mixed (Concatenat  (None, 5, 5, 448)            0         ['activation_597[0][0]',      
 e)                                                                  'activation_600[0][0]']      
                                                                                                  
 block8_8_conv (Conv2D)      (None, 5, 5, 2080)           933920    ['block8_8_mixed[0][0]']      
                                                                                                  
 custom_scale_layer_117 (Cu  (None, 5, 5, 2080)           0         ['block8_7_ac[0][0]',         
 stomScaleLayer)                                                     'block8_8_conv[0][0]']       
                                                                                                  
 block8_8_ac (Activation)    (None, 5, 5, 2080)           0         ['custom_scale_layer_117[0][0]
                                                                    ']                            
                                                                                                  
 conv2d_602 (Conv2D)         (None, 5, 5, 192)            399360    ['block8_8_ac[0][0]']         
                                                                                                  
 batch_normalization_602 (B  (None, 5, 5, 192)            576       ['conv2d_602[0][0]']          
 atchNormalization)                                                                               
                                                                                                  
 activation_602 (Activation  (None, 5, 5, 192)            0         ['batch_normalization_602[0][0
 )                                                                  ]']                           
                                                                                                  
 conv2d_603 (Conv2D)         (None, 5, 5, 224)            129024    ['activation_602[0][0]']      
                                                                                                  
 batch_normalization_603 (B  (None, 5, 5, 224)            672       ['conv2d_603[0][0]']          
 atchNormalization)                                                                               
                                                                                                  
 activation_603 (Activation  (None, 5, 5, 224)            0         ['batch_normalization_603[0][0
 )                                                                  ]']                           
                                                                                                  
 conv2d_601 (Conv2D)         (None, 5, 5, 192)            399360    ['block8_8_ac[0][0]']         
                                                                                                  
 conv2d_604 (Conv2D)         (None, 5, 5, 256)            172032    ['activation_603[0][0]']      
                                                                                                  
 batch_normalization_601 (B  (None, 5, 5, 192)            576       ['conv2d_601[0][0]']          
 atchNormalization)                                                                               
                                                                                                  
 batch_normalization_604 (B  (None, 5, 5, 256)            768       ['conv2d_604[0][0]']          
 atchNormalization)                                                                               
                                                                                                  
 activation_601 (Activation  (None, 5, 5, 192)            0         ['batch_normalization_601[0][0
 )                                                                  ]']                           
                                                                                                  
 activation_604 (Activation  (None, 5, 5, 256)            0         ['batch_normalization_604[0][0
 )                                                                  ]']                           
                                                                                                  
 block8_9_mixed (Concatenat  (None, 5, 5, 448)            0         ['activation_601[0][0]',      
 e)                                                                  'activation_604[0][0]']      
                                                                                                  
 block8_9_conv (Conv2D)      (None, 5, 5, 2080)           933920    ['block8_9_mixed[0][0]']      
                                                                                                  
 custom_scale_layer_118 (Cu  (None, 5, 5, 2080)           0         ['block8_8_ac[0][0]',         
 stomScaleLayer)                                                     'block8_9_conv[0][0]']       
                                                                                                  
 block8_9_ac (Activation)    (None, 5, 5, 2080)           0         ['custom_scale_layer_118[0][0]
                                                                    ']                            
                                                                                                  
 conv2d_606 (Conv2D)         (None, 5, 5, 192)            399360    ['block8_9_ac[0][0]']         
                                                                                                  
 batch_normalization_606 (B  (None, 5, 5, 192)            576       ['conv2d_606[0][0]']          
 atchNormalization)                                                                               
                                                                                                  
 activation_606 (Activation  (None, 5, 5, 192)            0         ['batch_normalization_606[0][0
 )                                                                  ]']                           
                                                                                                  
 conv2d_607 (Conv2D)         (None, 5, 5, 224)            129024    ['activation_606[0][0]']      
                                                                                                  
 batch_normalization_607 (B  (None, 5, 5, 224)            672       ['conv2d_607[0][0]']          
 atchNormalization)                                                                               
                                                                                                  
 activation_607 (Activation  (None, 5, 5, 224)            0         ['batch_normalization_607[0][0
 )                                                                  ]']                           
                                                                                                  
 conv2d_605 (Conv2D)         (None, 5, 5, 192)            399360    ['block8_9_ac[0][0]']         
                                                                                                  
 conv2d_608 (Conv2D)         (None, 5, 5, 256)            172032    ['activation_607[0][0]']      
                                                                                                  
 batch_normalization_605 (B  (None, 5, 5, 192)            576       ['conv2d_605[0][0]']          
 atchNormalization)                                                                               
                                                                                                  
 batch_normalization_608 (B  (None, 5, 5, 256)            768       ['conv2d_608[0][0]']          
 atchNormalization)                                                                               
                                                                                                  
 activation_605 (Activation  (None, 5, 5, 192)            0         ['batch_normalization_605[0][0
 )                                                                  ]']                           
                                                                                                  
 activation_608 (Activation  (None, 5, 5, 256)            0         ['batch_normalization_608[0][0
 )                                                                  ]']                           
                                                                                                  
 block8_10_mixed (Concatena  (None, 5, 5, 448)            0         ['activation_605[0][0]',      
 te)                                                                 'activation_608[0][0]']      
                                                                                                  
 block8_10_conv (Conv2D)     (None, 5, 5, 2080)           933920    ['block8_10_mixed[0][0]']     
                                                                                                  
 custom_scale_layer_119 (Cu  (None, 5, 5, 2080)           0         ['block8_9_ac[0][0]',         
 stomScaleLayer)                                                     'block8_10_conv[0][0]']      
                                                                                                  
 conv_7b (Conv2D)            (None, 5, 5, 1536)           3194880   ['custom_scale_layer_119[0][0]
                                                                    ']                            
                                                                                                  
 conv_7b_bn (BatchNormaliza  (None, 5, 5, 1536)           4608      ['conv_7b[0][0]']             
 tion)                                                                                            
                                                                                                  
 conv_7b_ac (Activation)     (None, 5, 5, 1536)           0         ['conv_7b_bn[0][0]']          
                                                                                                  
 global_average_pooling2d_2  (None, 1536)                 0         ['conv_7b_ac[0][0]']          
  (GlobalAveragePooling2D)                                                                        
                                                                                                  
 dense_4 (Dense)             (None, 128)                  196736    ['global_average_pooling2d_2[0
                                                                    ][0]']                        
                                                                                                  
 dropout_2 (Dropout)         (None, 128)                  0         ['dense_4[0][0]']             
                                                                                                  
 dense_5 (Dense)             (None, 7)                    903       ['dropout_2[0][0]']           
                                                                                                  
==================================================================================================
Total params: 54534375 (208.03 MB)
Trainable params: 54473831 (207.80 MB)
Non-trainable params: 60544 (236.50 KB)
__________________________________________________________________________________________________
